NN_RTT_model.pth (torch, 271226 bytes, 5 tensors)

weight f4 [256, 2]
0	0xbef6d8a6	-0.48212165
1	0xbf4cc341	-0.79985434
2	0xbf0f245c	-0.55914855
3	0x3ec7a015	0.3898932
4	0xbee274a2	-0.4422961
5	0x3d1daa97	0.038492765
6	0xbf27b99c	-0.6551759
7	0xbf10d5a0	-0.56575966
8	0x3c86bc55	0.016447226
9	0x3f0a659a	0.5406128
10	0xbf0a9097	-0.54126877
11	0x3e48ce31	0.19609906
12	0x3eca80d5	0.39551416
13	0x3e906a5d	0.2820615
14	0x3e2b2e0f	0.16716789
15	0xbf32249e	-0.69587123
16	0xbd2779fd	-0.04088782
17	0xbf0df0d2	-0.5544559
18	0x3f0f018f	0.55861753
19	0xbeb7d277	-0.3590276
20	0x3d4749cc	0.048654363
21	0xbf1d0973	-0.61342543
22	0x3dd527dc	0.10407993
23	0x3e8f94c4	0.28043187
24	0x3ef4c1bb	0.47804055
25	0x3e6b2704	0.22964102
26	0x3f1400e3	0.57813853
27	0xbf01c33e	-0.5068854
28	0x3f1616f6	0.58628786
29	0xbf1d3c96	-0.6142057
30	0x3dac8458	0.0842368
31	0x3c6a7c34	0.014311839
32	0xbf0b8682	-0.5450212
33	0x3eeaf7bf	0.4589214
34	0x3ea78ecf	0.32726142
35	0xbea62ff1	-0.3245845
36	0xbf72ca65	-0.9484008
37	0xbc98babd	-0.018643731
38	0x3cae7d58	0.021300003
39	0x3e999294	0.29994643
40	0xbd5e9cc1	-0.05434871
41	0xbf4845ac	-0.7823131
42	0xbbd59043	-0.0065174415
43	0xbbcc6b55	-0.006238381
44	0x3ef7ce6c	0.48399675
45	0x3f1c6eca	0.6110655
46	0x3f25048c	0.64460063
47	0xbeed9b44	-0.4640752
48	0x3ef17152	0.4715677
49	0xbf2e5211	-0.68093973
50	0x3da5f677	0.0810365
51	0xbf21f578	-0.6326518
52	0x3ed83f2e	0.42235702
53	0xbf0d65fd	-0.55233747
54	0xbf57d168	-0.84303904
55	0xbb5245e9	-0.0032085127
56	0x3e1be9aa	0.15225855
57	0xbe8432ff	-0.25820157
58	0x3e0de23e	0.13855836
59	0xbf0a5af9	-0.54045063
60	0xbe543725	-0.20724161
61	0xbf1a14ec	-0.60188174
62	0xbe0975f8	-0.13423908
63	0x3f0b4acc	0.54411006
64	0x3f3cc1ce	0.7373322
65	0xbbdb0591	-0.006684013
66	0xbd9d464b	-0.07679423
67	0x3ea9c597	0.33158562
68	0x3e62a163	0.22131877
69	0xbf5b512d	-0.8567074
70	0x3d9e068f	0.07716095
71	0xbea65616	-0.32487553
72	0x3ef74afe	0.48299402
73	0xbf350941	-0.70717245
74	0x3f1d9966	0.6156219
75	0x3e940c2d	0.2891554
76	0xbdb97dde	-0.090572104
77	0xbf1a4af0	-0.60270596
78	0xbebe4fd6	-0.37170285
79	0xbec8600c	-0.39135778
80	0xbd02ab18	-0.03190145
81	0xbf0e7091	-0.5564051
82	0x3dbbac33	0.09163704
83	0x3f26ac05	0.6510623
84	0x3ec7008d	0.38867608
85	0xbf241783	-0.64098376
86	0x3dd84d1f	0.10561585
87	0xbf1bde62	-0.60886204
88	0x3ebf87a1	0.37408164
89	0x3eebc28b	0.46046862
90	0xbf0529f2	-0.5201713
91	0xbf0646b8	-0.5245166
92	0x3ef4bf15	0.47802034
93	0x3ec43297	0.38319847
94	0x3eb8fadd	0.36128893
95	0xbfa1da6a	-1.264478
96	0xbd2a9407	-0.041645076
97	0x3f2dd588	0.6790395
98	0xbea3fed8	-0.32030368
99	0x3f09dad5	0.53849536
100	0x3e8b3087	0.2718546
101	0xbc2e8586	-0.010651952
102	0xba11e558	-0.0005565486
103	0xbe9ca3a3	-0.30593595
104	0x3ce76cbb	0.028250089
105	0x3f015b34	0.5052979
106	0xbee77d85	-0.4521295
107	0xbe9c195b	-0.30488095
108	0xbebb6dd0	-0.36607218
109	0xbf4edd33	-0.80806273
110	0x3f23ab76	0.63933504
111	0xbf0844d0	-0.5323
112	0xbed49faf	-0.4152808
113	0x3f063ce9	0.5243669
114	0x3f23bff8	0.63964796
115	0xbf4e72ad	-0.8064373
116	0xbf0f8eeb	-0.5607745
117	0x3ea38c7e	0.31943125
118	0x3d08dd8d	0.033414412
119	0x3eeb2ad5	0.45931116
120	0xbcd25844	-0.025676854
121	0x3e0a77d3	0.13522272
122	0x3c6c8412	0.014435785
123	0xbf09ac65	-0.5377868
124	0x3f064c40	0.524601
125	0xbf2e6fa8	-0.68139124
126	0x3f2ea309	0.6821752
127	0xbe9428e5	-0.2893745
128	0xbf472946	-0.77797353
129	0xbea0e6e4	-0.31426156
130	0xbe65bd51	-0.224355
131	0x3f1a2ef5	0.602279
132	0xbe219872	-0.1578081
133	0x3f25f2af	0.6482343
134	0x3db0b67b	0.086285554
135	0x3f179a25	0.5921958
136	0xbdae16ae	-0.085004196
137	0x3bf6936d	0.0075248987
138	0xbe988797	-0.29790947
139	0xbe097fa8	-0.13427603
140	0x3c861d3a	0.016371358
141	0x3e473de8	0.19457209
142	0x3ebf530b	0.37368044
143	0x3cc954b6	0.024576526
144	0xbf02831b	-0.509813
145	0x3f001b36	0.5004152
146	0xbdb3b17c	-0.08774087
147	0x3f2c10cf	0.6721315
148	0xbe633835	-0.2218941
149	0xbedf8f52	-0.43664032
150	0xbea4be41	-0.32176402
151	0x3eaa9148	0.33313966
152	0xbef42397	-0.47683403
153	0x3ee20b1a	0.44149095
154	0x3f354ba7	0.7081856
155	0xbea891d9	-0.32923773
156	0xbf1b7bd4	-0.6073582
157	0xbc70521d	-0.014668015
158	0xbf02a932	-0.5103942
159	0xbef4c551	-0.4780679
160	0x3f0ddd2f	0.55415624
161	0x3dca83da	0.0988843
162	0x3f11986c	0.568732
163	0xbc0a608a	-0.008445868
164	0xbf1f8393	-0.6231014
165	0x3e725dd6	0.23668608
166	0x3ee9bc28	0.45651364
167	0xbf610f51	-0.87913996
168	0x3e6d1f1c	0.23156399
169	0x3cab2322	0.020890776
170	0x3dc283ae	0.09497772
171	0x3e5f980e	0.21835348
172	0x3d99eec6	0.075162455
173	0x3f0e9ab4	0.5570481
174	0xbeb7f928	-0.3593228
175	0xbe9239af	-0.28559634
176	0xbdb8a882	-0.09016515
177	0x3e49452f	0.19655298
178	0x3d9d258a	0.07673176
179	0x3e1b378e	0.15157911
180	0x3f05fd52	0.5233966
181	0xbf333fd5	-0.70019275
182	0x3f13a4d4	0.5767338
183	0x3f13510d	0.5754555
184	0x3f3f060d	0.7461861
185	0xbebd21e0	-0.36939907
186	0xbcc704f4	-0.024294354
187	0x3d8864b0	0.066598296
188	0x3f01d44d	0.5071457
189	0xbf325ca2	-0.69672596
190	0xbe4bb2ba	-0.19892398
191	0xbf5adf2e	-0.85496795
192	0x3ed43558	0.41446948
193	0x3e8034c5	0.2504026
194	0xbedad9e6	-0.42744368
195	0x3ef0c023	0.4702159
196	0x3e7fef51	0.24993636
197	0xbf203da7	-0.62594074
198	0x3f1916b5	0.59800273
199	0x3f04d474	0.5188668
200	0xbed5bbcd	-0.41744843
201	0xbde6f1a1	-0.11276556
202	0x3f0aeea9	0.54270416
203	0xbf1aa450	-0.6040697
204	0x3f2eb007	0.68237346
205	0x3f292414	0.66070676
206	0x3e3dcdff	0.18535613
207	0xbea25a07	-0.3170931
208	0x3e8c677a	0.27422696
209	0x3f053625	0.52035743
210	0x3c3ef116	0.011654159
211	0x3ee3a058	0.4445827
212	0xbf0ca66e	-0.5494145
213	0xbc1576c4	-0.009122554
214	0x3f34f444	0.7068522
215	0xbf083452	-0.53204834
216	0xbf1ba942	-0.6080514
217	0x3f1b8747	0.6075329
218	0x3ef71695	0.48259416
219	0x3f1e1e9a	0.61765444
220	0x3ea32677	0.31865284
221	0xbf2f4c7b	-0.68476075
222	0xbea4d7ad	-0.32195798
223	0xbbe8d44c	-0.007105386
224	0xbedacf7a	-0.42736417
225	0xbf2aaefc	-0.66673255
226	0xbd389028	-0.045059353
227	0x3ee187e5	0.44048992
228	0x3f4e430f	0.80571073
229	0xbc4043df	-0.011734932
230	0xbf25e71c	-0.6480577
231	0x3dd3f118	0.10348719
232	0xbeebe45d	-0.46072665
233	0x3e4cd7b3	0.20004158
234	0xbf1eadbe	-0.6198386
235	0x3f06981e	0.5257586
236	0x3efd79be	0.49506944
237	0xbeaecd83	-0.34141168
238	0x3c6dcc33	0.014514017
239	0x3af8b65f	0.0018975249
240	0xbefbf2ee	-0.49208778
241	0x3e9f35c8	0.3109572
242	0x3f55248c	0.8325889
243	0xbf1dfaf6	-0.6171106
244	0xbe9c6489	-0.30545452
245	0xbb2707c8	-0.0025486816
246	0x3ea367be	0.31915087
247	0x3d70cb15	0.058787424
248	0x3ee28c1c	0.4424752
249	0x3d8aa31f	0.06769394
250	0x3d212880	0.039345264
251	0x3d101241	0.03517366
252	0x3e8a10d1	0.26965955
253	0x3f1b9824	0.60779023
254	0xbddcccbf	-0.1078124
255	0x3d5be6d3	0.053686928

bias f4 [256]
0	0xbf3c5972	-0.7357398
1	0x3d808365	0.062750615
2	0xbf04076e	-0.51573837
3	0x3e842e14	0.25816405
4	0xbe29c987	-0.16580783
5	0xbe9b7c27	-0.30368158
6	0xbf329be2	-0.6976911
7	0x3d17adbf	0.03703093
8	0x3f2372e8	0.6384721
9	0x3f4d91d7	0.8030066
10	0xbedf9ffd	-0.4367675
11	0xbe77117c	-0.24127764
12	0xbeede483	-0.46463403
13	0x3ddad44b	0.10685023
14	0x3f1516d3	0.5823795
15	0xbee3d211	-0.44496205
16	0xbe15157c	-0.14558977
17	0xbd40147e	-0.046894543
18	0x3f63a181	0.8891831
19	0xbebb970e	-0.36638683
20	0xbecb46f8	-0.39702582
21	0x3e95ed5b	0.2928265
22	0xbf1633d4	-0.58672833
23	0x3f5071a2	0.8142339
24	0x3eaaa9ed	0.33332768
25	0x3f5d4b4a	0.86443007
26	0x3e98fd4c	0.2988075
27	0x3f5e6785	0.8687671
28	0xbf463e86	-0.77439153
29	0x3e308e00	0.17241669
30	0x3f632de4	0.887419
31	0xbe834e07	-0.25645468
32	0xbe0ac4ad	-0.13551588
33	0xbeb76078	-0.35815787
34	0x3f4a7130	0.7907896
35	0x3d26ff74	0.040770963
36	0x3f0960c8	0.536633
37	0xbf164a99	-0.58707577
38	0x3f481b27	0.7816643
39	0xbef576ce	-0.47942203
40	0xbf20db0f	-0.62834257
41	0xbf2740ad	-0.6533306
42	0xbf232532	-0.6372863
43	0x3e77d39e	0.2420182
44	0xbccb9d34	-0.024855234
45	0xbf18621e	-0.59524715
46	0xbd95364e	-0.072857484
47	0x3f919150	1.1372471
48	0x3e8cf09e	0.27527326
49	0x3ee53307	0.44765493
50	0x3e7a83f6	0.24464402
51	0xbf47305d	-0.7780817
52	0x3f06069b	0.5235383
53	0x3e1baabd	0.1520185
54	0xbf5ec8e9	-0.87025315
55	0x3e5037cd	0.20333786
56	0xbe8ffe9f	-0.28123948
57	0x3f137b5e	0.5761012
58	0xbf1c77de	-0.611204
59	0x3e8de5f3	0.277145
60	0x3eb51deb	0.35374388
61	0x3e8eba2a	0.27876407
62	0x3e53d0c1	0.20685102
63	0x3f3ba1c2	0.732937
64	0x3e03f4c1	0.12886335
65	0x3d209f3e	0.039214365
66	0xbe9a022e	-0.30079788
67	0xbebb8195	-0.366223
68	0x3dc81d01	0.09771157
69	0xbf5a3e98	-0.8525176
70	0xbeeacdfc	-0.4586028
71	0xbe1604e6	-0.14650306
72	0xbf1faf95	-0.6237729
73	0xbf221677	-0.6331553
74	0x3d90d59e	0.07071994
75	0xbeed8740	-0.4639225
76	0xbf2530ad	-0.645274
77	0xbe8f5f44	-0.2800237
78	0x3f1bb518	0.608232
79	0x3e92ee31	0.2869735
80	0x3e86409d	0.2622117
81	0x3ef4bf27	0.47802088
82	0x3f051acb	0.5199401
83	0x3f288a65	0.65836173
84	0x3d05a19e	0.032624833
85	0xbc6f0013	-0.01458742
86	0xbf119a8a	-0.5687643
87	0xbf425f3f	-0.75926584
88	0x3eccaf23	0.3997737
89	0xbf0deea1	-0.55442244
90	0x3ede0973	0.43366584
91	0x3f2312c2	0.637005
92	0x3d04b6be	0.03240084
93	0xbe7ae8a8	-0.24502814
94	0x3f44174c	0.7659805
95	0xbee7604a	-0.4519065
96	0xbf249ec7	-0.64304775
97	0x3e64c122	0.223393
98	0x3f09a31e	0.5376452
99	0x3edf79e8	0.43647695
100	0xbf396a0d	-0.72427446
101	0x3f13be98	0.577127
102	0x3da27842	0.079330936
103	0x3d8c9102	0.068635955
104	0xbbe20120	-0.0068971068
105	0x3cd3e21f	0.025864659
106	0x3f37df12	0.71824753
107	0xbd165e7a	-0.036711194
108	0xbea8c96c	-0.32966173
109	0xbd313497	-0.043263044
110	0xbf248fa0	-0.64281654
111	0xbd0b1dcf	-0.033963975
112	0xbe85203f	-0.26001164
113	0xbe96ca58	-0.2945125
114	0xbf265bcf	-0.6498384
115	0x3e6e2a7b	0.23258393
116	0x3e806309	0.25075558
117	0xbda64d6e	-0.08120237
118	0x3efadf26	0.48998374
119	0x3f153e10	0.58297825
120	0x3eedc6c5	0.46440712
121	0xbd078155	-0.033082325
122	0x3eddc1e7	0.43311998
123	0x3e5b6996	0.21426997
124	0x3ecb3181	0.39686206
125	0xbeceb87e	-0.4037513
126	0x3eca22aa	0.39479572
127	0x3db9cac3	0.09071877
128	0xbf24f526	-0.64436567
129	0x3f34fe51	0.70700556
130	0xbf2398fc	-0.6390531
131	0x3edf2568	0.43583226
132	0xbd9c0d99	-0.07619781
133	0xbf2cf287	-0.6755757
134	0xbefbddf1	-0.49192765
135	0x3d363a5a	0.044489242
136	0xbf7d4f58	-0.98949194
137	0x3e9a19ac	0.3009771
138	0x3f2a1b2f	0.6644773
139	0x3ed1665a	0.408984
140	0xbf63b7f4	-0.88952565
141	0x3db8db51	0.09026206
142	0xbf060754	-0.5235493
143	0xbe607736	-0.21920475
144	0xbf215aa8	-0.63028955
145	0x3e97e9c4	0.29670537
146	0xbf2f3f89	-0.6845632
147	0x3eee1eb9	0.46507815
148	0xbf2164f8	-0.6304469
149	0xbe35a75f	-0.17739628
150	0x3e2a1b86	0.16612062
151	0xbe197aa6	-0.14988193
152	0x3d54decf	0.0519703
153	0xbf317df2	-0.693328
154	0xbe955c54	-0.29172003
155	0x3e9244f1	0.28568223
156	0xbe132c29	-0.14372315
157	0xbf1a71a0	-0.6032963
158	0x3c9ab5ee	0.018885579
159	0x3edec145	0.43506828
160	0xbe84c1c8	-0.25929093
161	0x3d9633b5	0.07334081
162	0x3f119eb7	0.56882805
163	0xbf2d13ab	-0.67608136
164	0x3f30b652	0.690282
165	0x3e586d89	0.21135534
166	0xbeac899e	-0.33698744
167	0x3d120509	0.035649333
168	0x3f4ce0e1	0.8003064
169	0x3f0af964	0.5428679
170	0xbe086cbf	-0.13322733
171	0x3f2e3657	0.68051666
172	0x3f02b6e0	0.51060295
173	0xbd16a179	-0.036775086
174	0xbe6e39c1	-0.23264219
175	0x3ec2dbdf	0.38058373
176	0xbf6969bf	-0.9117698
177	0x3f08a5d1	0.53378016
178	0xbe97f45a	-0.29678613
179	0x3f04debf	0.51902384
180	0xbe55a8bf	-0.20865153
181	0x3e2ebe64	0.17064816
182	0x3de6baa3	0.11266067
183	0xbe9dbb00	-0.30806732
184	0xbf85416b	-1.0410589
185	0xbf473d8c	-0.7782829
186	0xbf1f178e	-0.62145317
187	0x3f37e5ca	0.71835005
188	0x3e65cc9c	0.22441334
189	0x3eb7250d	0.35770455
190	0xbec8dbb6	-0.39230126
191	0x3ed0dd5c	0.40793884
192	0x3f0686c2	0.52549374
193	0xbe667836	-0.22506794
194	0xbe1bcc95	-0.1521476
195	0x3d18490a	0.03717903
196	0xbdc24e7b	-0.09487625
197	0x3f24ad85	0.6432727
198	0x3e993be4	0.29928505
199	0xbe7f82ac	-0.24952191
200	0xbee4c20d	-0.446793
201	0x3e54605a	0.2073988
202	0x3e4e3668	0.20137942
203	0xbe88d4c0	-0.26724815
204	0xbf27e07e	-0.6557692
205	0xbf2505b3	-0.6446182
206	0x3e02b923	0.12765937
207	0xbf2e741b	-0.6814591
208	0x3e7a58a4	0.24447876
209	0xbf1db0f4	-0.61598134
210	0x3f1878ae	0.5955914
211	0x3efbec29	0.49203613
212	0xbf5e84f8	-0.86921644
213	0x3f14f321	0.58183485
214	0x3eb98211	0.36232045
215	0xbe3df16d	-0.18549128
216	0xbe1f5b26	-0.15562114
217	0x3f243573	0.6414406
218	0x3f30720d	0.6892403
219	0xbe35ca1f	-0.17752884
220	0x3d45d1de	0.048295848
221	0xbede3b9b	-0.4340485
222	0xbf29448b	-0.66120213
223	0xbf3a2247	-0.72708553
224	0xbe2561e7	-0.16150628
225	0xbeb50536	-0.35355538
226	0xbf7bf21a	-0.9841629
227	0xbe4bd3ee	-0.19905064
228	0x3eafa79e	0.3430757
229	0x3ec1262b	0.37724432
230	0x3f1abaa9	0.6044107
231	0xbed1de58	-0.40989947
232	0xbdb0aa00	-0.08626175
233	0xbe80e0f7	-0.25171635
234	0x3eca0dc5	0.3946363
235	0x3f0d9599	0.5530639
236	0x3ddc1cca	0.107476786
237	0x3f44cd45	0.76875716
238	0x3ece3e8a	0.4028209
239	0x3f06f09b	0.52710885
240	0x3f1ce1f1	0.6128226
241	0x3d3047fa	0.043037392
242	0x3ea982a5	0.33107486
243	0x3ef74168	0.48292089
244	0x3f1360b7	0.5756945
245	0x3e7dff8d	0.24804516
246	0x3f1cc26a	0.6123415
247	0xbed77c94	-0.42087233
248	0xbe333f10	-0.17504525
249	0x3db2a5c0	0.087230206
250	0xbee01e34	-0.43773043
251	0xbeaee456	-0.34158581
252	0x3ef24704	0.47319806
253	0x3f351469	0.7073427
254	0x3dccd5a7	0.100016885
255	0xbf4f355e	-0.80940807

weight f4 [256, 256]
0	0x3ac77d27	0.0015219793
1	0xbbed0d58	-0.0072342567
2	0xbca64981	-0.020298721
3	0xbd066470	-0.03281063
4	0x3d30eb60	0.04319322
5	0x3d531753	0.051535916
6	0x3d4d54fb	0.05012987
7	0xbd768028	-0.060180813
8	0x3c223820	0.009901077
9	0x3bc87da6	0.006118494
10	0x3cfc938d	0.030832076
11	0xbc251656	-0.010076126
12	0xbccb83cc	-0.02484312
13	0xbd78524d	-0.060625363
14	0x3d0e92c9	0.034807954
15	0x3d601c13	0.054714274
16	0xbd18d68a	-0.037313975
17	0xbc912e7a	-0.017722357
18	0xbd7250de	-0.059159152
19	0xbc15789e	-0.009122996
20	0x3c20918d	0.009800327
21	0x3cf957e2	0.030437414
22	0xbcfef2fa	-0.03112172
23	0x3d074c80	0.03303194
24	0xbd85e554	-0.065378815
25	0x3d49fa31	0.049310867
26	0x3d432146	0.047639154
27	0xbca3b723	-0.019984787
28	0xbc840888	-0.01611735
29	0xbd21ee7f	-0.03953409
30	0xbc64818d	-0.013946903
31	0xbd3fbb40	-0.046809435
32	0x3c850dcf	0.016241936
33	0xbd2838cc	-0.04106979
34	0x3d507441	0.05089212
35	0xbca3ca12	-0.019993816
36	0x3c877f43	0.016540175
37	0x3b929663	0.004473494
38	0x3cb59509	0.022165792
39	0xbd04e7c7	-0.032447603
40	0xbd4ed4c0	-0.050495863
41	0xbcb86618	-0.02250962
42	0x3c3aa9fc	0.0113930665
43	0x3b3c477c	0.0028729131
44	0xbd091449	-0.03346661
45	0xbb8d551f	-0.0043131257
46	0x3d2aa764	0.041663542
47	0xbc29771d	-0.01034334
48	0x3c0298b0	0.007970974
49	0x3d76f139	0.06028864
50	0x3d0fd4b4	0.03511496
51	0x3d11f423	0.035633218
52	0x3c065948	0.008199997
53	0x3c5935ce	0.013257457
54	0x3ca64a9b	0.020299247
55	0xbd3edd0d	-0.04659753
56	0x3d01843e	0.031620257
57	0xbca7427b	-0.020417443
58	0x3d0ca0db	0.03433309
59	0x3caceabe	0.021108028
60	0x3d4ef933	0.050530624
61	0xbd39fd7c	-0.045407757
62	0xbd19d241	-0.03755403
63	0xbd7b91e6	-0.061418436
64	0xbccaa8d1	-0.024738701
65	0x3c60c667	0.013719178
66	0xbd41f78b	-0.047355216
67	0x3d36ddbe	0.044645064
68	0xbd640140	-0.055665255
69	0x3d694590	0.056951106
70	0xb9cae4a2	-0.00038698787
71	0xbb130e26	-0.0022438853
72	0xbce3ed18	-0.027823016
73	0xbd79f224	-0.06102194
74	0xbd4f297f	-0.050576683
75	0xbc82bc11	-0.015958818
76	0x3b4b1fe0	0.003099434
77	0x3d17a3a7	0.037021305
78	0x3cae9a8c	0.021313928
79	0x3d25119d	0.0403
80	0xbd6d523f	-0.057939764
81	0xbc88b45c	-0.016687565
82	0x3c8cf625	0.017207215
83	0xbd20c60c	-0.039251372
84	0x3d5d3902	0.054009445
85	0xbd2e96eb	-0.042624395
86	0x3d64d286	0.055864833
87	0x3c8effb1	0.017455908
88	0x3bd4cc48	0.006494079
89	0x3b148cc1	0.0022666904
90	0xbd28d9e5	-0.041223425
91	0xbd572b63	-0.05253161
92	0x3c046137	0.008079818
93	0x3bcb54ac	0.006205162
94	0xbd069d5d	-0.032864917
95	0x3d1a969e	0.037741296
96	0xba8a4f5d	-0.0010552217
97	0xbaf21882	-0.0018470439
98	0x3d5099bd	0.050927866
99	0xbd2b067b	-0.041754227
100	0x3d1efc57	0.03881487
101	0xbd594d05	-0.053051967
102	0xbd758ce2	-0.05994881
103	0xbd7634b6	-0.060108863
104	0x3c8db15f	0.017296491
105	0x3c1b15a0	0.009465605
106	0xbcdb13b1	-0.026742788
107	0x3ba67625	0.005080002
108	0x3c867969	0.016415315
109	0x3d640d96	0.05567702
110	0x3d7fd4dd	0.06245886
111	0xbc550605	-0.013001923
112	0xbd26ed8a	-0.04075388
113	0x3af6e409	0.001883627
114	0xbd08158b	-0.03322367
115	0x3d0b91cf	0.0340746
116	0xbcd6eafd	-0.026235098
117	0x3d4d2f3a	0.050093867
118	0xbd145c6f	-0.036220964
119	0xbc3c104b	-0.011478494
120	0x3d56f71a	0.05248175
121	0xbbbd4141	-0.005775601
122	0xbcf1fbc6	-0.029539
123	0xbd5ba1c1	-0.053621057
124	0x3c8fa340	0.017533898
125	0xbc2bf67e	-0.01049578
126	0x3ce67985	0.028134117
127	0x3b538d5d	0.0032280304
128	0xbceac815	-0.02865986
129	0x3d001816	0.03127297
130	0x3ccef67a	0.025264014
131	0x3d48736a	0.048938192
132	0x3cbfd3e8	0.023416474
133	0x3d12b04d	0.035812665
134	0x3d716150	0.058930695
135	0x3d5fb037	0.05461141
136	0x3c2abc02	0.010420801
137	0xbd43f36f	-0.04783958
138	0x3c999ef8	0.01875256
139	0x3d61a5b4	0.055089667
140	0x3d8580f8	0.065187395
141	0xbd53af82	-0.05168105
142	0xbd43a9d1	-0.04776937
143	0x3cb7afc9	0.022422688
144	0x3c9ac9d7	0.018895073
145	0x3d68133a	0.05665896
146	0xbcde4d10	-0.027136356
147	0xbc17460f	-0.009233012
148	0xbd5a9a18	-0.05336961
149	0x3c291ae7	0.010321355
150	0x3c51bc41	0.012801231
151	0x3cd27492	0.02569035
152	0xbd3f8f14	-0.04676731
153	0x3d3d3330	0.046191394
154	0x3c1795e1	0.0092520425
155	0xbcaea630	-0.021319479
156	0x3ca774e8	0.020441487
157	0xbd5d1765	-0.05397739
158	0xbc915ad3	-0.017743504
159	0xbc61768f	-0.013761177
160	0xbb702ce1	-0.0036647844
161	0xbd5b83b7	-0.05359241
162	0x3d1a8623	0.03772558
163	0xbd36bd72	-0.044614263
164	0xbce87d46	-0.028380048
165	0x3ceccdf7	0.028906805
166	0x3d60e948	0.054909974
167	0x3c29e25e	0.010368912
168	0xbc22c2e4	-0.009934161
169	0xbbea262c	-0.0071456637
170	0x3d1910cb	0.03736953
171	0xbd72f21d	-0.05931293
172	0x3ceba0a5	0.028763125
173	0xbc4ffd20	-0.012694627
174	0xbb234f2c	-0.0024919016
175	0x3d0fbc47	0.035091665
176	0xbd1c2d01	-0.038128857
177	0x3d558c3f	0.052135702
178	0xbd4c83de	-0.049930446
179	0x3d33edf1	0.04392809
180	0xbc289959	-0.010290467
181	0x3d5c4d05	0.05378439
182	0x3cfe326c	0.031029902
183	0xbd56ac85	-0.05241062
184	0xbd0bb16a	-0.034104742
185	0xbd7bed90	-0.061505854
186	0x3d21dd20	0.03951752
187	0xbd3eb69d	-0.046560872
188	0x3d0fadb4	0.035077766
189	0x3c8168e4	0.015797086
190	0xbcebe1cd	-0.028794194
191	0x3d3cee86	0.04612591
192	0x3d2a94af	0.041645702
193	0x3ca94f8a	0.02066781
194	0xbd3a0cc6	-0.045422338
195	0x3d66379c	0.056205377
196	0xbd720f98	-0.059096903
197	0xbd457ec0	-0.04821658
198	0xbc328156	-0.010895094
199	0xbc3e50a2	-0.011615904
200	0xbd7a6f34	-0.061141208
201	0xbcb731fd	-0.022362703
202	0x3d6dc0af	0.058045086
203	0xbcb648d9	-0.022251533
204	0x3c2f65e7	0.010705448
205	0xbd427763	-0.047477137
206	0xbc9d20f5	-0.019180754
207	0xbcc404cd	-0.02392807
208	0xbd4c00fd	-0.04980563
209	0xbd591b86	-0.053004764
210	0xbd39436f	-0.045230325
211	0x3c906d4b	0.01763024
212	0xbc23ff29	-0.010009565
213	0x3d79b71d	0.060965646
214	0xbcf6e413	-0.030138051
215	0x3bf07115	0.007337699
216	0x3d2970f0	0.04136747
217	0x3c357970	0.011076316
218	0x3c442f24	0.01197413
219	0xbd48fbe8	-0.04906836
220	0xbd1953d5	-0.037433464
221	0xbc350864	-0.011049364
222	0x3b692d79	0.0035580082
223	0x3bdf5388	0.0068153776
224	0x3d090759	0.033454273
225	0x3d02cda7	0.031934407
226	0x3d48a02a	0.04898087
227	0x3ba77fc1	0.005111665
228	0x3d59190a	0.053002395
229	0x3c6c34de	0.014416901
230	0xbd4a3a10	-0.04937178
231	0xbd47b43a	-0.04875586
232	0x3d71d345	0.059039373
233	0xbcf187e8	-0.02948375
234	0xbd605e9d	-0.05477773
235	0xbd0200ea	-0.031739153
236	0x3d72a978	0.05924365
237	0xbba3f4b8	-0.005003538
238	0x3d5f9a95	0.05459078
239	0xbd34f9a9	-0.044183407
240	0x3c6a9370	0.014317378
241	0x3cb3e3bc	0.021959178
242	0xbbd2d90c	-0.0064345654
243	0x3cff1dcd	0.03114214
244	0xbcb89a94	-0.022534646
245	0xbd2ceb7c	-0.042216763
246	0xbd7d0264	-0.061769858
247	0x3cec6f5f	0.0288617
248	0xbcf93497	-0.030420585
249	0x3ce50569	0.027956681
250	0x3cc059b3	0.023480272
251	0xbbaf99d6	-0.005358915
252	0x3c36ca4d	0.011156631
253	0xbc55f9d0	-0.013060048
254	0xbd69f462	-0.057117827
255	0x3bbc2902	0.005742193

bias f4 [256]
0	0xbc2560bd	-0.010093865
1	0xbd2c4f95	-0.042068083
2	0xb9b1b38b	-0.0003389384
3	0xbc7bfb27	-0.015379704
4	0xbc2a680e	-0.010400785
5	0xbc19b189	-0.009380707
6	0xbbb9f227	-0.0056746188
7	0x3c03c522	0.008042606
8	0x3b67333d	0.0035278343
9	0xbc061bf6	-0.008185377
10	0xbc4993a9	-0.012303271
11	0x3d33444a	0.043766297
12	0x3d4db9ae	0.050225906
13	0xbd126927	-0.035744812
14	0xbd2d3456	-0.04228624
15	0x3ab887c9	0.0014078553
16	0xbd7b47d3	-0.061347794
17	0xbbce0c54	-0.0062880907
18	0xbc4bce49	-0.012439319
19	0xbcfa7bc7	-0.0305766
20	0xbbfeb655	-0.0077732005
21	0xbcb9a701	-0.022662641
22	0xbd176642	-0.036962755
23	0xbdadc450	-0.08484709
24	0x3d64f3c1	0.055896524
25	0xbd62fb84	-0.055415645
26	0x3c548f5b	0.012973632
27	0xbcef82c2	-0.029237155
28	0x3b120676	0.0022281683
29	0x386aca17	5.597816e-05
30	0x3c688cd3	0.014193731
31	0xbd3b0a73	-0.045664262
32	0xbc97cafe	-0.018529411
33	0x3c621482	0.013798835
34	0xbc1f8192	-0.009735482
35	0x3d1dcfc0	0.038528204
36	0xbd89485f	-0.06703257
37	0x3c317783	0.0108317165
38	0xbd4fe8dc	-0.05075918
39	0xbda5edc2	-0.08101989
40	0x3c368c74	0.011141885
41	0x3d876605	0.066112556
42	0xbd833810	-0.064071774
43	0xbd1d079a	-0.038337328
44	0x3d6eebd8	0.058330387
45	0x3c594013	0.013259905
46	0x3d2a0aa0	0.04151404
47	0x3ca4f9ea	0.0201387
48	0xbd4d2d69	-0.050092135
49	0xbd0e629c	-0.03476201
50	0xbdd57624	-0.10422924
51	0xbc9df1d0	-0.019280344
52	0x3c2117f3	0.00983237
53	0xbb9caf36	-0.004781629
54	0xbd78cda7	-0.060743
55	0x3d776272	0.06039662
56	0xbd7c8fe7	-0.061660673
57	0x3cb79696	0.022410672
58	0xbcdc0122	-0.026856009
59	0xbd76fbbd	-0.06029867
60	0x3d7e6b7b	0.06211422
61	0xbdb8a983	-0.09016707
62	0x3c7d13bc	0.0154466
63	0xbd3e3a94	-0.046442583
64	0xbd6943eb	-0.056949537
65	0xbc08100c	-0.008304607
66	0x3caad4bc	0.020853393
67	0x3d73482e	0.059395008
68	0xbdb4c70e	-0.08827029
69	0xbc43ea70	-0.01195775
70	0x3d00bacf	0.031428155
71	0xbd3bf450	-0.04588729
72	0x3d1309a2	0.03589786
73	0xbbe9f4be	-0.0071397712
74	0xbc162714	-0.00916459
75	0xbd59ec52	-0.05320389
76	0x3d85898e	0.06520377
77	0xbd2be9f6	-0.04197117
78	0x3d616d58	0.05503592
79	0xbdce3618	-0.10068911
80	0xbd1ae444	-0.037815347
81	0x3d47cf99	0.048781965
82	0xbc7d0733	-0.015443611
83	0x3c47ea15	0.012201806
84	0x3d3a601e	0.04550182
85	0x3c8aeb31	0.016957851
86	0x3c1e97fb	0.00967979
87	0xbd4d22b6	-0.05008193
88	0x3d41f709	0.04735473
89	0x3c056078	0.008140676
90	0xbd41ce23	-0.047315728
91	0x3d0fbfed	0.035095144
92	0x3cb5f0f4	0.022209622
93	0x3c2fea86	0.010737067
94	0xbd79afc4	-0.06095864
95	0xbd7860f2	-0.06063933
96	0x3cf297c8	0.02961339
97	0x3d13cdbf	0.036084887
98	0xbc4f46a4	-0.012651119
99	0x3d7ef790	0.062247813
100	0x3d718a2b	0.058969658
101	0xbbb0225f	-0.005375191
102	0x3c9b0c70	0.01892683
103	0xba9e96d7	-0.0012099397
104	0x3d1ed145	0.038773794
105	0x3d36872d	0.044562507
106	0x3d672313	0.056429934
107	0xbbe66b05	-0.0070318007
108	0xbc8d95c1	-0.017283322
109	0x3d45da9c	0.048304185
110	0x3c74857b	0.014924402
111	0xbd19ef57	-0.037581768
112	0xbdba117f	-0.09085368
113	0x3bd58d82	0.006517113
114	0x3d659103	0.056046497
115	0x3d4d8ed1	0.05018503
116	0xbc8226c0	-0.015887618
117	0xbd90e2c1	-0.070745
118	0xbd3be986	-0.045877002
119	0xbdb812f4	-0.0898799
120	0x3d393404	0.04521562
121	0x3c6a7057	0.0143090105
122	0xbd919cee	-0.0711001
123	0x3ba306f0	0.0049751922
124	0x3d8515f2	0.06498326
125	0x3ce0243e	0.027361032
126	0xbd5ac3b6	-0.0534093
127	0xbd594baf	-0.053050693
128	0x3cc6a9dd	0.024250919
129	0x3cd0a0d9	0.025467323
130	0x3cbd871d	0.023135716
131	0x3c8b1cb4	0.01698146
132	0x3daa88ed	0.08326898
133	0x3cf05df8	0.029341683
134	0x3c9b80b4	0.018982269
135	0xbd418ae9	-0.047251616
136	0xbd6548b2	-0.05597753
137	0xbcbc1604	-0.022959717
138	0xbccf531a	-0.02530818
139	0xbd68d8d2	-0.0568474
140	0x37c8c69b	2.393434e-05
141	0x3ca92c6d	0.020651067
142	0x3b1a4cc5	0.0023544293
143	0xbd586312	-0.052828856
144	0xbac4c8df	-0.0015013478
145	0xbdcb4486	-0.09925179
146	0xbcaa29eb	-0.020771941
147	0x3bb025e5	0.005375611
148	0x3d8d0e34	0.06887475
149	0xbdd63184	-0.10458663
150	0x3db26f21	0.087126024
151	0x3c7b2f77	0.015331141
152	0x3cfa1b1f	0.03053051
153	0x3a59435d	0.0008287931
154	0xbce8335c	-0.028344803
155	0xbd2053a8	-0.03914228
156	0xbcd6ef52	-0.026237164
157	0xbcfd9c7b	-0.030958405
158	0xbb1c820b	-0.0023881223
159	0x3d12efb5	0.035873134
160	0xbc83ba59	-0.016080068
161	0xbcd0f2b1	-0.02550635
162	0xbd321d70	-0.043485105
163	0xbcdf8538	-0.027285203
164	0x3cc71ea7	0.024306608
165	0x3d110f27	0.03541484
166	0xbdc88786	-0.09791474
167	0xbc8f8667	-0.017520143
168	0x3b5a7af4	0.0033337446
169	0xbd432fd7	-0.047653046
170	0x3c78041f	0.015137701
171	0xbcb2c9b8	-0.021824703
172	0xbdd09424	-0.101845056
173	0x3c9591d4	0.018258013
174	0xbba0fd60	-0.004913017
175	0x3d29f411	0.041492525
176	0xbc7413ba	-0.014897281
177	0x3da54e18	0.08071536
178	0xbd01da1d	-0.03170215
179	0xbce082eb	-0.027406177
180	0xbb014346	-0.0019723936
181	0x3cb260a2	0.021774594
182	0x3d6932d9	0.056933258
183	0x3d0ceec2	0.034407385
184	0xbd3d987d	-0.046288002
185	0x3c0b3ba3	0.008498105
186	0xbd185cbc	-0.037197813
187	0xbbcbcf8f	-0.0062198113
188	0x3d4c8d3e	0.049939387
189	0xbbac7280	-0.005262673
190	0xbd02f9f6	-0.031976663
191	0xbd3e509f	-0.046463605
192	0xbce04ed4	-0.027381338
193	0xbc21e2a9	-0.0098807
194	0x3ce7c09e	0.02829009
195	0xbcb381e1	-0.021912517
196	0x3d043cd7	0.032284584
197	0x3c9ec9a5	0.019383261
198	0x3cdfbb11	0.02731088
199	0x3cd57207	0.026055349
200	0x3d8e07be	0.069350705
201	0xbc277868	-0.010221578
202	0xbd1c1d8a	-0.03811411
203	0x3cdfa70d	0.027301336
204	0xbd37accd	-0.04484253
205	0x3cba62f4	0.022752263
206	0xbd4313e6	-0.0476264
207	0xbc910654	-0.017703213
208	0x3d2785a7	0.040898945
209	0xbdb5ca0f	-0.0887643
210	0x3bf2c324	0.0074085165
211	0xba6e38a2	-0.00090874184
212	0xbcf9b028	-0.030479506
213	0xbd13d218	-0.036089033
214	0xbc4ccf97	-0.012500665
215	0x3c941992	0.0180786
216	0xbd5657dc	-0.052329883
217	0xbc8caced	-0.017172301
218	0x3d683f70	0.056701124
219	0xbc34086d	-0.010988337
220	0x3bf58e94	0.0074938033
221	0xbbdd99ba	-0.0067627104
222	0xbd02abb3	-0.031902026
223	0xbc106b9b	-0.008814718
224	0xb9dfb308	-0.00042667263
225	0x3c288bbf	0.010287224
226	0x3c54e65f	0.012994378
227	0xbcc8180d	-0.02442553
228	0x3adb0334	0.0016709329
229	0x3d2bee64	0.041975394
230	0x3d4a6494	0.049412325
231	0xbd268cf2	-0.04066176
232	0xbc6795b4	-0.014134813
233	0x3c91d1e0	0.017800272
234	0xbdcbcf0a	-0.09951599
235	0xbce17339	-0.027520763
236	0x3c161a90	0.009161606
237	0x3c2cb85e	0.010542003
238	0xbc5e66eb	-0.013574342
239	0xbcd0819e	-0.025452431
240	0xbcc25f9d	-0.023727233
241	0xbc2e515a	-0.010639513
242	0xbcf42e92	-0.029807363
243	0x3c103f34	0.008804131
244	0xbbfe0248	-0.007751737
245	0x3c3db805	0.011579518
246	0x3c2c5b1d	0.01051977
247	0xbdbe8b60	-0.093039274
248	0x3d1be402	0.038059242
249	0xbb405dc3	-0.0029352761
250	0x3c222b91	0.009898082
251	0xbd88eb84	-0.06685546
252	0xbbcbf93b	-0.006224779
253	0xbd56dd48	-0.052457124
254	0x3c661df6	0.014045229
255	0xbdb080c1	-0.08618308

weight f4 [1, 256]
0	0xbd024a9b	-0.03180943
1	0xbd693b10	-0.056941092
2	0xbce6ea3e	-0.028187867
3	0xbc63d9fe	-0.013906954
4	0xbd45e4e7	-0.048314
5	0xbd87cf6e	-0.06631361
6	0xbcab0b36	-0.02087937
7	0x3d5569a9	0.05210272
8	0xbba214d5	-0.004946331
9	0xbcfa03fb	-0.030519476
10	0xbc90a5c5	-0.01765717
11	0xbc2d4da8	-0.010577597
12	0x3d3b2450	0.045688927
13	0xbd788504	-0.06067373
14	0xbcb68ca5	-0.022283861
15	0xbc880d36	-0.016607862
16	0xbd852b00	-0.06502342
17	0x39edc4cb	0.00045350785
18	0x3d2d6783	0.042335045
19	0xbd5d5275	-0.054033715
20	0xbd0e545b	-0.034748416
21	0x3d762f26	0.060103558
22	0x3d2b4a28	0.041818768
23	0xbd5b57a9	-0.053550396
24	0x3c4d30bd	0.012523827
25	0x3d05717a	0.032578923
26	0x3bb3f638	0.005491998
27	0x3d259684	0.040426746
28	0x3d1a37ea	0.03765098
29	0xbc6c8beb	-0.014437656
30	0x3d607b31	0.054804984
31	0xbcbac999	-0.022801207
32	0x3cd34f9c	0.025794797
33	0xbc64ac0e	-0.013957037
34	0x3d0c250b	0.034215014
35	0x3ca2e043	0.019882327
36	0xbd5f7c5d	-0.05456196
37	0xbbd834e4	-0.006598102
38	0xbd469c1e	-0.04848873
39	0xbce43a0b	-0.027859708
40	0x3c23bdb0	0.0099939555
41	0x3d60a961	0.054849032
42	0xbc677b5c	-0.014128532
43	0xbd69cff0	-0.05708307
44	0x3c041554	0.008061726
45	0x3d1a6dbb	0.037702303
46	0x3bd516b4	0.0065029506
47	0xbd43ae8d	-0.047773886
48	0xbc61a59f	-0.013772397
49	0x3d38c9cb	0.04511432
50	0xbd7544d5	-0.059880096
51	0x3ab50e7d	0.0013813522
52	0x3d5ea8c6	0.054360174
53	0x3d1fe79d	0.039039243
54	0xbd272e3b	-0.040815573
55	0x3d0870f5	0.03331085
56	0xbd262165	-0.04055919
57	0x3d2bceab	0.04194514
58	0x3bc082ab	0.005874952
59	0xbd60d32f	-0.0548889
60	0x3d3cd6be	0.04610323
61	0xbd13ece8	-0.036114603
62	0x3d60f5f7	0.05492207
63	0xbcb7d550	-0.022440583
64	0xbd1c0797	-0.038093176
65	0x3ce9d1be	0.028542396
66	0x3d502de0	0.050825
67	0x3d54a11a	0.05191145
68	0xbb96b72b	-0.004599472
69	0xbd7004d3	-0.05859835
70	0x3d0c2156	0.03421148
71	0xbc897c89	-0.016783016
72	0x3d63aa4d	0.055582333
73	0xbc6e3bd1	-0.0145406285
74	0xbd43e16b	-0.047822397
75	0xbd7cbc00	-0.06170273
76	0x3ca63c37	0.020292385
77	0xbd147071	-0.036240045
78	0xbae7e1ca	-0.0017691192
79	0xbbe23bd7	-0.006904106
80	0xbd412f40	-0.0471642
81	0x3d520460	0.051273704
82	0x3bb8c1ce	0.0056383377
83	0x3d1acd6c	0.03779356
84	0x3d0cd066	0.03437843
85	0xbce9531c	-0.028482012
86	0xbd62a28a	-0.05533079
87	0xbd75ca04	-0.06000711
88	0xbc1f29ab	-0.009714524
89	0x3d151cf3	0.03640456
90	0xbd154cd8	-0.036450237
91	0xbcd15797	-0.025554461
92	0x3d2607ed	0.040534902
93	0x3d193946	0.037408136
94	0xbc380248	-0.011231013
95	0xbd47265d	-0.04862057
96	0x3cd1c06e	0.025604453
97	0xbd1fff8d	-0.03906207
98	0x3d42b001	0.04753113
99	0x3cb6601d	0.022262627
100	0x3d476b17	0.048686113
101	0x3c598ead	0.013278645
102	0xbcb862d3	-0.02250806
103	0x3d66d27f	0.05635309
104	0xbd490c99	-0.04908428
105	0x3c043e2f	0.008071466
106	0xbd43d758	-0.04781279
107	0xbd0f7c57	-0.03503069
108	0xbbc9562c	-0.0061443057
109	0xbd06e665	-0.032934565
110	0xbd366afe	-0.04453563
111	0x3d2b2bf2	0.041789956
112	0xbc0c8b8d	-0.008578193
113	0xbc9278ee	-0.01787993
114	0x3d22916f	0.039689478
115	0x3b698fa5	0.0035638597
116	0xb927b3a6	-0.00015993285
117	0xbb7c92f6	-0.0038539744
118	0x3ce51073	0.027961945
119	0xbd83a9ba	-0.06428857
120	0xbc1f5c76	-0.009726634
121	0x3d008f37	0.03138658
122	0xbd3c00c7	-0.04589918
123	0x3abacd73	0.0014251902
124	0x3bf35518	0.0074259154
125	0xbd3fe9dc	-0.046853885
126	0x3c812364	0.015763946
127	0x3c3e8f6b	0.011630873
128	0x3c827bff	0.015928267
129	0x3d39ff46	0.045409463
130	0x3d2fe7dc	0.042945728
131	0xbd69a255	-0.057039578
132	0x3bf824e3	0.0075727566
133	0x3d3040b8	0.04303047
134	0x3c869837	0.016430004
135	0x3ca87bb7	0.020566804
136	0xbd78421c	-0.06060992
137	0xbd77ceeb	-0.060500067
138	0x3c2c26ad	0.010507268
139	0x3c0bca64	0.00853214
140	0x3d23a3b2	0.039951034
141	0x3c7eabac	0.015543859
142	0x3d47a74c	0.04874353
143	0x3ca33f0f	0.01992753
144	0xbd87e0ae	-0.06634651
145	0xbcac1fd4	-0.02101127
146	0x3d3f7ac3	0.046747934
147	0x3cc1ce5a	0.023657966
148	0x3c693c89	0.014235624
149	0xbbf65a36	-0.007518078
150	0x3d072143	0.032990705
151	0x3c1ace83	0.00944865
152	0x3d555a0d	0.052087832
153	0x3a855603	0.0010172728
154	0x3c832307	0.016007913
155	0xbd8aa866	-0.06770401
156	0x3ce23118	0.0276113
157	0x3d386e2f	0.045026954
158	0x3d242017	0.040069666
159	0x3d72f37a	0.05931423
160	0xbd68c8c4	-0.05683209
161	0x3c8e4038	0.017364606
162	0xbaca4e4e	-0.0015434714
163	0x3d6b55e3	0.057454955
164	0xbd6b0ee5	-0.05738725
165	0x3d0d3e90	0.034483492
166	0xbd0b1276	-0.033953153
167	0x3c722f84	0.014781836
168	0x3c4c2edd	0.012462345
169	0xbd626779	-0.05527446
170	0xbd330349	-0.043704305
171	0xbc86b4d5	-0.01644365
172	0xbbd5d227	-0.0065252963
173	0xbb54914b	-0.0032435234
174	0x3d51abee	0.051189356
175	0xbd5efb97	-0.054439154
176	0xbba147c1	-0.004921884
177	0x3c2bd36f	0.010487421
178	0x3d2c9e3d	0.042143095
179	0xbcd3cbce	-0.025854018
180	0xbd1bf276	-0.038073026
181	0x3cc1f0de	0.023674425
182	0x3d124b76	0.035716496
183	0xb98c1cd4	-0.0002672436
184	0x3d1c94a6	0.0382277
185	0x3d0f6ec7	0.035017755
186	0x3c8021e4	0.01564116
187	0xbd7754f0	-0.060383737
188	0xbd5813ab	-0.05275313
189	0xbc8b4775	-0.017001847
190	0x3c3036a8	0.010755219
191	0xbb9410c0	-0.0045185983
192	0x3d1b815f	0.037965175
193	0x3d4c7c6f	0.049923357
194	0x3d566f41	0.052352194
195	0xbce9c170	-0.028534621
196	0xbd4fde17	-0.05074891
197	0x3c38d3e9	0.011280992
198	0x3d5c7b7a	0.053828694
199	0xbc5669f2	-0.013086783
200	0xbbd46911	-0.0064822515
201	0xbcf54344	-0.029939301
202	0xbc39e10c	-0.011345159
203	0xbc6105f6	-0.013734331
204	0xbd2c13cf	-0.04201108
205	0x3c3f2a77	0.011667839
206	0xbd2fdd40	-0.04293561
207	0xbd09ca51	-0.03364021
208	0xbca8de0e	-0.020613696
209	0xbd1df73e	-0.038565867
210	0x3d12e322	0.035861142
211	0x3cd0c1ab	0.025482973
212	0x3c6815df	0.014165371
213	0xbd3170f9	-0.04332063
214	0x3d374cef	0.044751104
215	0x3d5bbe23	0.053648125
216	0xba92d0cc	-0.0011201142
217	0x3d24acd5	0.040203888
218	0x3d0d11fa	0.034440972
219	0xbd892378	-0.06696218
220	0xbd13f3f4	-0.036121324
221	0xbd709656	-0.05873712
222	0x3d008244	0.03137423
223	0xbce956d1	-0.02848378
224	0xbd88861e	-0.06666206
225	0xbc48b690	-0.012250558
226	0xbce8ab46	-0.028401982
227	0x3d3e2297	0.046419706
228	0x3d40aa58	0.047037452
229	0x3bd727d1	0.006566026
230	0x3d075aae	0.033045463
231	0x3c2d2fea	0.010570506
232	0xbcda0dba	-0.026617873
233	0xbd490edb	-0.049086433
234	0x3c90e4ab	0.017687162
235	0x3d53b34a	0.051684655
236	0x3d514922	0.051095136
237	0x3d4c6a3d	0.049906004
238	0xbd09750f	-0.0335589
239	0xbcb373c2	-0.021905784
240	0x3d25814c	0.04040651
241	0x3cf70333	0.030152893
242	0xbca57845	-0.02019895
243	0x3bbd1b4b	0.005771076
244	0x3cf97948	0.03045334
245	0x3d41f85e	0.047356002
246	0xbc1e56bf	-0.009664237
247	0xbd2ecaab	-0.042673748
248	0x3d184166	0.037171744
249	0x3c143af8	0.009047262
250	0xbd34baa3	-0.044123303
251	0xbd7f51c6	-0.062333845
252	0x3d638449	0.05554608
253	0xbc776a1a	-0.01510098
254	0x3d2f00c8	0.042725354
255	0xbd8053da	-0.062659934
