NN_without_GMM_model.pth (torch, 273354 bytes, 5 tensors)

weight f4 [256, 4]
00000000: 1fc3 0f3e 8fbf af3d 0cab 78bd 830e 5e3e
00000010: 4e1d b6bd 2684 a03e b15a 93be 69f7 a43e
00000020: d8a1 dcbd 08bd c0be eab9 0b3f a196 24be
00000030: b449 72be 3938 9ebe b755 2d3e ae62 bdbe
00000040: 51b0 c1be 00eb 08be c1d5 d3be fd54 f73e
00000050: 213b 9ebd c858 0e3e 3b2f 2fbe 183b 53be
00000060: 3ddd 933e 2c55 a13e cd45 f4be ce49 0a3d
00000070: cd75 a53d e5d3 6e3f a3a3 00bc 85f7 25bc
00000080: b9cf eb3e 024b be3e ed36 e8be 836e 913e
00000090: 96d6 293d dfd2 02be 1014 c2bd 57b2 c13e
000000a0: 88e4 03be 4652 1cbe ff4c c2bc 5a9a 503e
000000b0: 20c9 db3d b407 80be 7b73 09bf b608 09bf
000000c0: 947a d3be 6fcf 3d3e f976 95bd 76a1 023e
000000d0: 576f 99be 05ae 04bf b8db 863e cd1a 8c3e
000000e0: 7132 e43e f1ac e23d 3b9b c83e 1d62 cb3e
000000f0: 6c4c 9d3e 6711 aa3e 0d6a d5bd f5fd ddbe
00000100: 46df afbd dfdc 97be e21f 1cbe 140f 6b3e
00000110: 348c 1e3e 803a ddbe 6a21 92be bd51 173e
00000120: 4576 eebd 3ae6 6ebd 9eb4 5fbe caa5 f93e
00000130: 25af a33e 71eb b0be 9823 b03e 9b54 b03c
00000140: 8c7d eebc e876 363e 6806 38bf 65aa 55bc
00000150: d708 a13e deaa b43c 7ae7 773e b58f 30be
00000160: 8f7c d03e 8453 9cbd 8e99 4abe 6434 273e
00000170: aaec f8bc 0c5b 503f 957f c2bf fcf0 bdbc
00000180: 0842 1b3e 4204 aebd 6407 4ebe 7644 eabb
00000190: df9a d8be b45f ed3e 1dc2 7d3b caa0 263e
000001a0: ea10 973e c2cc dcbd b594 663e dd50 3ebe
000001b0: 43ae 053d 906b 89bf a32d 8c3f 6589 1cbf
000001c0: 2471 d9be b456 07bf 423b f63e 73b0 cabe
000001d0: daa7 333e 4e07 4d3e 3cf8 783e c2c7 943e
000001e0: 87c0 f0be c77e 68bd e521 153e 232d 913e
000001f0: 3821 5a3e abd8 843e f881 6bbc 04a9 6dbe
00000200: 105b e8be 3767 dbbe e397 753e f45a 963d
00000210: 357e 533e aead a0be 7d99 9f3e 3258 823e
00000220: ecdc b4be c8a0 093e 4234 63be 6e2f 923e
00000230: c786 963e 50c2 ffbe baff 57be e0ab 8abc
00000240: 9812 85be 2e18 0b3f 76bf 03bd f7d9 90be
00000250: 53e4 2cbe 41ef ee3e 1f93 d03e b966 643e
00000260: d758 ba3c 3d50 95bf 7e41 683f 49f2 96be
00000270: 1ac6 3c3e 1dec d73e 8ec9 8a3e 3bab 0b3d
00000280: 45df d53e 4751 82be c5c8 b93e e2cb 7a3e
00000290: f179 c2be 6875 5ebd ccc4 9ebc a33a 463e
000002a0: 2362 123e 9267 833e 3fb2 8cbe 6dfa 47bc
000002b0: bbd4 263e 81f3 04bd 0690 d03d 0499 b0be
000002c0: 81cc 4d3e 9fe6 69be 11e4 953e 1780 eabb
000002d0: c4e3 083f 84b9 ee3e f55f 523e 9680 ecbe
000002e0: cc80 7d3e f08f d7be 9fbf 06bf 84c2 b6bc
000002f0: fad3 ff3e dcbf 5f3e 8667 c43d 8939 063e
00000300: 5dbe 2ebe da52 59be 96cf b9bc 8fbe e63e
00000310: 39e3 8a3e ee70 96bc c632 11be 4fdd 3b3c
00000320: dbba 9cbe 9289 20bf 6aaf 8dbe b0d4 b5be
00000330: 5bbf 5abe 28c4 16be 605d 0cbf 2041 11bd
00000340: 2fc0 bbbe b5aa a83e 5f54 44be 434e b63e
00000350: 7b21 eb3e 8b54 cf3e 364a 933e ac59 463c
00000360: 5bce 913e 14a3 d53e 4a45 353e 5f52 143e
00000370: 56dc 583e 4b92 893e 8121 13bf d7b5 b0bc
00000380: 6696 8e3e 8eec 773e c126 8c3e 73cd c43e
00000390: e3e0 fc3e 909b 813e 459c 4abe 2c26 e1be
000003a0: 74fc 4abe 8181 00be 60c2 4f3d 1752 06bf
000003b0: 0175 06be a15b 91be 0f85 813c 94a0 7c3e
000003c0: 4e6c b53c 6b78 e8bd 9841 4bbe ebf2 023e
000003d0: ffe5 f1be 0ff1 623f dd7b 9bbe ebb9 d2bd
000003e0: 910d 39be c442 abbe 1e9b 563d c6bf 19bf
000003f0: 4b3a 783e 04dd a7be ebb9 89be 6406 863e
0.14039277 0.08581459 -0.060709998 0.21685223 -0.08892308 0.3135082 -0.2878013 0.3222001
-0.10773057 -0.3764422 0.5458056 -0.16073085 -0.23660928 -0.3090227 0.16927229 -0.3698935
-0.3782983 -0.13370895 -0.4137402 0.48307028 -0.07726122 0.13901055 -0.1710786 -0.20628011
0.2887973 0.31510293 -0.47709504 0.033761792 0.08079109 0.93292075 -0.007851514 -0.010129814
0.46056917 0.371666 -0.45354405 0.28404626 0.04146441 -0.12775753 -0.09476483 0.37831375
-0.12880147 -0.1526576 -0.023718355 0.2037138 0.10731721 -0.25005877 -0.53691834 -0.53528917
-0.41304457 0.18536161 -0.07298083 0.12756905 -0.29967758 -0.5182803 0.26339507 0.27364197
0.44569734 0.11068142 0.3918093 0.39723292 0.30722368 0.33216402 -0.10420618 -0.43357816
-0.08587508 -0.296607 -0.15246537 0.2295497 0.15483171 -0.43208694 -0.28541118 0.14777274
-0.11643652 -0.05832503 -0.21846244 0.487593 0.31969562 -0.34554628 0.34402156 0.021524718
-0.0291126 0.17818797 -0.71884775 -0.0130411135 0.31452057 0.022054132 0.24209395 -0.1724232
0.4072003 -0.07633117 -0.19785139 0.16328579 -0.030386288 0.81388927 -1.5195185 -0.0231862
0.15161908 -0.08496906 -0.20120007 -0.0071492745 -0.42305657 0.46362078 0.0038720437 0.16272274
0.29505092 -0.10781242 0.22517665 -0.18585534 0.032636892 -1.073595 1.0951427 -0.6114715
-0.42469132 -0.52866673 0.48092085 -0.39587745 0.17544499 0.20022318 0.24313444 0.29058653
-0.47021887 -0.05676153 0.14563711 0.2835475 0.21301734 0.25946555 -0.014374249 -0.23209006
-0.45381975 -0.42852184 0.23983721 0.07341567 0.20653613 -0.31382507 0.3117179 0.25457913
-0.353248 0.1344024 -0.22187904 0.2855181 0.29399702 -0.49952936 -0.21093646 -0.01692766
-0.25990748 0.5433377 -0.032165013 -0.28291294 -0.16883974 0.4666691 0.40737244 0.2230481
0.02274744 -1.1665112 0.90724933 -0.29481724 0.18434945 0.42172328 0.271069 0.034098845
0.41771904 -0.25452635 0.36285987 0.24491838 -0.3798366 -0.054311186 -0.01938095 0.19358306
0.14295249 0.25664955 -0.2747974 -0.012205702 0.16292088 -0.032458786 0.1018372 -0.34491742
0.20097543 -0.22841881 0.29275563 -0.007156383 0.5347254 0.46625912 0.20544417 -0.46191853
0.24756163 -0.42102003 -0.5263614 -0.02230955 0.49966413 0.21850532 0.09590058 0.13107885
-0.17064805 -0.21223012 -0.022681993 0.4506726 0.27126482 -0.018364396 -0.14179525 0.011466338
-0.3061131 -0.62709916 -0.27672893 -0.3551383 -0.21362059 -0.14723265 -0.5482998 -0.0354625
-0.36670062 0.3294274 -0.1917281 0.35606584 0.4592398 0.4049419 0.28767556 0.01210634
0.2847775 0.4172598 0.17702213 0.14484547 0.21177801 0.26869425 -0.57473 -0.021571083
0.2784912 0.24211332 0.27373317 0.38437995 0.49390325 0.25313997 -0.19786175 -0.43974435
-0.19822866 -0.12549402 0.05072248 -0.5246901 -0.13130571 -0.2839022 0.015810518 0.2467063
0.02214637 -0.11351093 -0.19849241 0.12787978 -0.47245786 0.88649076 -0.30367938 -0.10289367
-0.18071581 -0.33449376 0.052394025 -0.6005825 0.24240987 -0.3278581 -0.26899657 0.2617675

bias f4 [256]
00000000: bb11 ad3e 5a7f 0cbe c993 833e 0382 c9bd
00000010: e5b3 6a3e d3c0 efbe 10e6 85be 662c 1ebd
00000020: 5ad6 d53e 15de 17be a7bd cc3d c75e c83c
00000030: d41f a43e 0567 f3bb 7c37 b9be 53fc 0dbe
00000040: b571 d53e c550 a33e f166 c93e 5521 febd
00000050: b74e 853e fcaf f9be a92d f1be 32a0 bcbe
00000060: 2502 c33d 5a53 1a3e 224b 2f3d f19a 313f
00000070: 7186 d5bc cc27 e23c e17a b6be e710 db3d
00000080: ba1c 1e3c 0879 663e 208e 313e 9ac1 cabe
00000090: 9e92 bdbe 2944 62be 30f5 033e 95da eabe
000000a0: 9508 cfbe 335c e83e 575c 25be 7d71 773e
000000b0: 19b0 863e c3c8 cfbe 0083 ab3e fa6e 6ebe
000000c0: da43 4f3e dad8 1d3e 7295 6dbb 85d9 d9be
000000d0: aacf 603e 77cf c63e f326 283e dc66 86be
000000e0: a5d4 ce3e 6ee3 81be 0e95 d33e 4493 52be
000000f0: 3528 77be a289 fbbe ef91 bd3e 3927 f83c
00000100: 5437 f13e b281 663e c628 d0be e322 093e
00000110: 688a febe 0ee4 d0bd 099f c2be ac8e bb3e
00000120: b63f ca3e 238c bcbe a30f 8f3e 532c 03bf
00000130: 3564 7cbb dfd5 15be 634e cfbe ac3f e63c
00000140: 43c8 683e 55a5 35bd ffe8 c5be 77c7 a23e
00000150: 581b 7fbe a47f 8cbd c458 7d3e 7d42 15bd
00000160: a996 5abe f861 a2be 56d6 9e3e 5a40 0b3f
00000170: 955a fabd 4353 1cbe 26a3 0e3d d719 d3be
00000180: 6006 783e 82bb f63c 4bac d3be 2c8b af3e
00000190: 57d5 403f 6419 04bf 059c febe 226d ffbd
000001a0: 4249 f73e a43b 50be 2043 733e a898 a1be
000001b0: 109a 803e 3458 083e d2bb b93e 755a 87be
000001c0: b34c 953e d4ff 96bd c429 7e3e eaec 21be
000001d0: 4f8f dd3d 437c 163e 5599 b1be f15a f6be
000001e0: e913 e43d 1286 563c 27ac debe a9ec 0a3f
000001f0: aac6 353e 0cc5 383f 23ff d93e 1c32 af3d
00000200: 7968 fc3e 81a2 dabd e018 2dbe 606f 3b3e
00000210: cc18 1c3e 98b0 efbe afdb 39be 2872 b4bd
00000220: ca47 423e 9690 763e 8d54 02bc 5b9d d93e
00000230: 588c bcbd 3bd9 b03e 3438 9dbd b0d7 103d
00000240: 8737 bfbe e491 33be ad1c 113f 5f24 113f
00000250: fbda b63e 2292 943e 1acf 75bc 6ae5 663e
00000260: 92cb 1b3d bcff 02bf 1dec 5abe 8fbc f63e
00000270: 0e5f abbe c471 bf3c 19cc c3be aee6 8d3e
00000280: 5219 c43d c5a2 a33e c87d a43e c87d 5d3e
00000290: 81ae 7a3e 19e8 64be 8222 2dbe c137 033e
000002a0: c05e 023e 63c4 febe 9008 5abe 5cbd 80be
000002b0: 23c2 f33e 0793 ee3e 5c78 a4bd 6f1b 253d
000002c0: 1fba b7bc d3b2 103e 4e01 ee3e 3cb0 02bf
000002d0: 9af0 113f 9df2 e4be bece 8e3e 977a 1e3e
000002e0: 04e6 29bd de7a b03e e057 0b3e eab8 a03e
000002f0: d68a cb3d d96b 9b3e 0170 7bbe fa5d b53e
00000300: a6bf ad3e c223 7abe 0cff eb3b 7307 20be
00000310: 58d7 5f3e 321e 5f3e 4d93 b53e a942 21be
00000320: 0e6b 233c 1ed3 8bbe f631 3ebd 45ac bc3e
00000330: 70d3 febe 18e4 d4bd fbf1 25bf 155f dfbe
00000340: 2264 3bbe bc7a 94be 8bbf f2bc db1a 08be
00000350: 8623 87be b240 cc3e 3b75 c83e ed2d d9bd
00000360: deb6 263e 686e acbe 5b99 cc3e 2761 563e
00000370: 6844 f93b 94c2 0e3e fc0e 303e 2f57 8abf
00000380: b13d 1ebe e7ce ebbe d0b2 f5be a5e7 e5be
00000390: 5ec6 813e 6812 15be d8a6 3dbe 4cf5 783e
000003a0: 3fef ba3e 0af6 13bd c648 893e a980 afbe
000003b0: f3f1 5a3e 6f74 abbe ea89 58bd d6b7 a43e
000003c0: 8409 bcbe a816 a13e e49c 20be c533 a73e
000003d0: 2feb 323e d5f0 ff3d 57b5 b2be be45 ab3e
000003e0: a40e 913e 0e7f 353e 68be 99be 54e6 d5bd
000003f0: 21d5 d8bc b256 b3be f284 1d3f 30f8 373e
0.3380259 -0.13720456 0.2569869 -0.09839251 0.22920187 -0.468268 -0.26152086 -0.03861656
0.417651 -0.14830811 0.09997111 0.024459256 0.32055533 -0.0074280524 -0.36175144 -0.13865785
0.41688314 0.3189756 0.3933635 -0.12408701 0.26036617 -0.48767078 -0.47105148 -0.3684097
0.095218934 0.15070859 0.04279626 0.69377047 -0.026065083 0.027606867 -0.35640624 0.10696583
0.009650404 0.22507107 0.17339373 -0.3960083 -0.37025923 -0.22096314 0.128865 -0.4586989
-0.40436235 0.45382842 -0.16148506 0.24164386 0.26306227 -0.40582857 0.33498383 -0.23284522
0.20240727 0.15414754 -0.0036252406 -0.42548767 0.21954218 0.38830158 0.16421108 -0.2625035
0.4039661 -0.25368828 0.41324657 -0.2056399 -0.24136432 -0.49128443 0.370254 0.03029214
0.47112525 0.22510412 -0.40656108 0.13392214 -0.4971497 -0.10199748 -0.3801196 0.36632288
0.39501733 -0.36825666 0.27941617 -0.5123951 -0.0038511876 -0.14632367 -0.40489492 0.028106533
0.22732644 -0.044347126 -0.38654324 0.31792805 -0.24912775 -0.06860283 0.24740893 -0.03644036
-0.21346535 -0.3171537 0.310229 0.5439507 -0.122243084 -0.15266137 0.03482356 -0.41230652
0.24221182 0.030118708 -0.41342387 0.34285867 0.7532553 -0.51601243 -0.49728408 -0.12471987
0.4829808 -0.20335251 0.23756075 -0.3156178 0.2511754 0.13314897 0.36276108 -0.264362
0.2916008 -0.07373014 0.2482062 -0.15813032 0.108183496 0.1469584 -0.34687296 -0.48116258
0.1113661 0.013093488 -0.43490717 0.54267365 0.17751566 0.7217567 0.42577466 0.085544795
0.49298456 -0.106755264 -0.1690402 0.18304205 0.15243834 -0.46814418 -0.18150209 -0.08810836
0.18972698 0.24078593 -0.007954729 0.42502865 -0.09206456 0.34540734 -0.076767355 0.035361946
-0.37347052 -0.17536122 0.5668438 0.5669612 0.35713944 0.2901774 -0.01500299 0.22548452
0.038035937 -0.5117147 -0.21379133 0.48190734 -0.33470958 0.023369677 -0.38241652 0.27715057
0.09575142 0.3196012 0.32127213 0.21630013 0.2448063 -0.22354163 -0.16907695 0.12814237
0.12731457 -0.49759206 -0.21292329 -0.2514447 0.47609052 0.46596548 -0.08030769 0.040309366
-0.022427617 0.14130716 0.4648537 -0.5105016 0.57007754 -0.4471635 0.27892107 0.15476452
-0.041479126 0.3446874 0.1360774 0.31391078 0.0993859 0.3035572 -0.24554445 0.3542326
0.3393528 -0.24427703 0.007202035 -0.15627842 0.21859491 0.21788862 0.35463944 -0.15748085
0.009974254 -0.27309507 -0.046434365 0.3685018 -0.4977069 -0.10395068 -0.6482236 -0.4362723
-0.18299916 -0.2899989 -0.02963235 -0.13291495 -0.2639429 0.3989311 0.3915194 -0.10604463
0.16280696 -0.33677983 0.3996075 0.20935498 0.0076070316 0.13941413 0.17193216 -1.0807856
-0.15453221 -0.4605629 -0.47987986 -0.44903293 0.25346655 -0.14557803 -0.18520677 0.24312323
0.36510655 -0.036123313 0.26813334 -0.34277847 0.21381359 -0.3348727 -0.0528659 0.32171506
-0.3672601 0.31462598 -0.15684849 0.32656685 0.17472528 0.12497107 -0.34903976 0.33451647
0.28331482 0.17724249 -0.3002808 -0.10444322 -0.026468815 -0.3502708 0.61530983 0.1796577

weight f4 [256, 256]
00000000: f27b ed3c 8b4c 563d aebb 703d 866b 24bd
00000010: 48e0 02bc ba09 40bd bc79 e03a e03f 293c
00000020: dcd8 713d 0202 f7bc 6fe0 03bd 0a14 593d
00000030: c024 973b c7dd 80bc 1c5c 6ebc a983 133d
00000040: b6bf 433d cad1 0c3d 4798 f53c 884e 3ebd
00000050: 8242 b43c 283c 233d c795 55bd 3722 043d
00000060: 0089 85bc 9a36 983b 8055 6c3d 5556 183d
00000070: 33d5 69bd 77f0 cb3c 39cd 6c3d 617c f33c
00000080: d2d4 cf3b d8ae b5bc 0eeb 613d 2e94 383c
00000090: 7150 a53b 7fe0 1b3d d94d e53c b72f 62bb
000000a0: 2395 023d 69c7 403d b88a eb3c bb11 7b3d
000000b0: 63b3 efbc 4bb5 933b 4b75 543b a8fb 34bc
000000c0: ead4 4fbd 0e42 33bd 31c9 f6bc bafb 64bd
000000d0: 9959 1f3c 68eb 34bc 78a7 ec3b 68a5 12bd
000000e0: b416 bcbb 60f9 8f3c 123b 563d ea04 4bbd
000000f0: c150 dc3c 5397 833d 8018 b3bc b7bf 3c3d
00000100: 7b8e 803c bf1e 0a3d f585 d3bc cefa 9abc
00000110: a05c 313d 6ee1 a7bc c3ec 023d 4219 0dbd
00000120: 18f6 dcbb 7243 67bc 61bd 6abb 3cff 663c
00000130: 2c17 be3c c0cb a53b 88d4 ee3c 5500 29bc
00000140: da60 f8bb 8ba7 58bc 4c61 e6ba f8f2 c2bc
00000150: 5c16 5f3d 0272 98bc c936 4fbd 8348 073d
00000160: 558c 713d 5ccb 59bd 15ac 4c3d d08a b5bb
00000170: 989d b03c f7ca f8b9 4da7 63bd f95e f7bb
00000180: de2d b6bc af08 413d 6178 1fbd fe25 e8bc
00000190: 1ee9 163d 24cb 463d 7714 703d 4568 f93b
000001a0: 4deb 26bc 2c1f bcbb 5336 50bd 5c01 56bd
000001b0: a126 513d 8282 1b3d 52c0 67bd ea52 19bd
000001c0: 055f 25bd 4051 48bd 5864 793d d429 3abd
000001d0: a3cd 193d f7bb 4e3d c6d3 413d 43b4 5fbd
000001e0: 1f4b a6bc 57e6 4abd 7e9a 96bc 5727 e6bc
000001f0: 288f 65bd 35b3 77bd ff9e ad3c 2335 693d
00000200: ded4 5b3b 1c44 35bd e5e5 3e3c 760a c7bb
00000210: 9d17 443c 34e1 493d 7209 163d 6f4d 11bd
00000220: 4cd7 f5bc ab0f 1a3d 8ac0 6c3b cd9e 67bd
00000230: 7d9c 6dbd aa52 623d b5da 733d 909f 52bc
00000240: 21bc 3bbd f763 78bd ff7c 7fbb 736d 713d
00000250: 9a98 df3c 3d7c 683c fc0e 54bd 7c38 ca3c
00000260: 8f98 14bd c276 fc3c aab0 a3bc 8f4b 213d
00000270: 34d9 86bc afbf 633d 04e3 663d 9f69 383d
00000280: c604 cb3b ffdf 2dbd 6df9 b23b cbff 53bd
00000290: de8f 5b3c 1612 19bd c349 dabb 4072 143d
000002a0: ecd8 33bc 5ccc c3bc 8a1e 4a3c 8ee0 543c
000002b0: 9ed4 603c b278 4c3d b4ab d8bc 8e73 aebc
000002c0: 04b2 14bb 1b58 d3bb 0eed 55bc d04f 9dbc
000002d0: f74f a5bc efc1 173d 9ca2 5dbd 692f 9bbc
000002e0: e5cd 2a3c 8906 223d 0fbe 5fbd 9023 443d
000002f0: b443 c63c d98b 04bd 601f 27bd bd4f 523d
00000300: b3b2 6dbd dd46 08bd a44b 28bd e69d 113d
00000310: 8a2e 803d d786 143d 1ef4 e83c b6e0 bc3c
00000320: 996c ee3c 5f7e 6a3d bf02 42bc f4ce 4fbd
00000330: bb9e 1f3d 9ff0 3bbc d883 6a3d 5157 de3c
00000340: 16a1 4a3d 90e4 60bd b694 5f3c fc87 86bc
00000350: 0a04 1d3d 51ce 13bb 6c24 73bd 8908 6f3d
00000360: feae d23b cf9d 56bd db70 1fbd 2610 fbba
00000370: 107d 4b3d 6274 33bc c19f f539 c1fe 2dbd
00000380: f0e7 553d b31a 1b3d e208 b33c 8bba a33c
00000390: 69a8 843d 9e11 4bbd bae0 5abd 5190 45bd
000003a0: be51 71bd ae69 73bc 5982 16bd 4076 283c
000003b0: 8eb6 81bd 2067 e3bc cb27 693b 3bd3 77bd
000003c0: 358d 44bc 9d44 733d d95b db3b 7815 0f3d
000003d0: ae49 54bc 6ac5 5cbc 6883 debc 7301 36bc
000003e0: 162c 23bd a9c6 893d c66a 503d bffb 2a3d
000003f0: 5a38 bd3c 7b5e 1c3d 23c2 fcbc 4b13 993b
0.028989766 0.05231909 0.058772735 -0.040141605 -0.007988043 -0.046884276 0.0017126123 0.01033017
0.059044704 -0.030152325 -0.03219646 0.052997626 0.0046125352 -0.015730752 -0.014548328 0.036014233
0.04779025 0.034379758 0.029979838 -0.046461612 0.02200437 0.03985229 -0.052144792 0.032259192
-0.016300678 0.004645181 0.057698727 0.037191708 -0.05708809 0.024894936 0.057812903 0.029722394
0.006342509 -0.022178099 0.055155806 0.011265798 0.0050449898 0.038055893 0.027991222 -0.0034513304
0.03188051 0.047065172 0.02875267 0.061296206 -0.029260343 0.004507696 0.0032418545 -0.011046328
-0.05074016 -0.043764167 -0.030125232 -0.055904128 0.009725952 -0.011042453 0.0072221123 -0.035802275
-0.005740011 0.017574966 0.052302428 -0.049565233 0.026893975 0.06425347 -0.021862268 0.04608127
0.01569294 0.033720728 -0.025820712 -0.018918421 0.043301225 -0.020493235 0.031964075 -0.034447916
-0.006743204 -0.014115201 -0.0035818445 0.014098939 0.023204409 0.0050596893 0.029154077 -0.010315021
-0.007579905 -0.013223539 -0.0017576604 -0.023797497 0.054464683 -0.01860905 -0.050589357 0.033028137
0.05897172 -0.053172454 0.049968798 -0.0055402294 0.021559522 -0.00047453467 -0.055579472 -0.0075491634
-0.022238668 0.047127422 -0.03893316 -0.028338429 0.03684341 0.048533574 0.058613267 0.007611307
-0.010187936 -0.0057410207 -0.050833058 -0.05224739 0.05106223 0.03796626 -0.056579895 -0.03743259
-0.04037382 -0.04890561 0.06088671 -0.045450047 0.037549626 0.050472226 0.047321104 -0.05461527
-0.020299492 -0.049536075 -0.018384214 -0.02809493 -0.056044728 -0.06047364 0.02119398 0.05693544
0.0033543627 -0.044254407 0.011651491 -0.006074245 0.0119685205 0.049287036 0.0366301 -0.035474237
-0.030009888 0.0376126 0.0036125504 -0.05654793 -0.058010567 0.055254616 0.059534747 -0.0128554255
-0.04583371 -0.06064221 -0.0038984416 0.05894227 0.027294446 0.014189777 -0.051772103 0.024685137
-0.036278304 0.030818347 -0.0199817 0.0393787 -0.016460992 0.055602726 0.056368843 0.045022603
0.0061956374 -0.042449947 0.005461863 -0.051757615 0.013401 -0.037370764 -0.006661625 0.03624177
-0.010977011 -0.023901157 0.012336383 0.012992991 0.013722567 0.04991979 -0.026449062 -0.021295335
-0.0022689113 -0.006449712 -0.0130570065 -0.019203097 -0.020179732 0.037050184 -0.054110155 -0.018943505
0.010425066 0.039557014 -0.054624613 0.047885478 0.024202205 -0.03235993 -0.040801406 0.051345576
-0.05803175 -0.033270705 -0.04108776 0.035550974 0.062588766 0.036261406 0.028436717 0.02305637
0.029104518 0.057249423 -0.011841475 -0.050734475 0.038969737 -0.011470943 0.057254642 0.027141245
0.04947003 -0.054905474 0.013646295 -0.016422264 0.03833393 -0.0022553394 -0.059360906 0.05835775
0.006429552 -0.05239659 -0.038925987 -0.0019154593 0.049679816 -0.010953041 0.00046849067 -0.04247928
0.052223146 0.03786726 0.021854822 0.019986412 0.06477434 -0.049577348 -0.053436972 -0.048233334
-0.058915846 -0.014856739 -0.036745403 0.010282099 -0.06333648 -0.027759135 0.0035576697 -0.06050418
-0.011996557 0.059391607 0.0066942987 0.034932584 -0.01295702 -0.013474802 -0.027162269 -0.011108744
-0.039836966 0.067273445 0.050883077 0.04174399 0.02309816 0.03817604 -0.03085429 0.0046714894

bias f4 [256]
00000000: 97af 2fbd 2190 3bbd 094e 91bb ba76 edbb
00000010: d9b3 023c b9fc 0c3d 6022 74bb 8077 3bbd
00000020: a8c9 323c 05d6 383d 7d37 433d 6701 533d
00000030: 79e0 6abd 1045 3bbd cc24 2d3d 4a50 babc
00000040: da01 503d 0bb7 9cbc 1de8 7fbc 4822 16bd
00000050: c658 eabc 19e5 473d 4195 85bd 37cd ee3b
00000060: 4a7c b2bc 1fca 06bd 4ecd 60bd 98df 1c3c
00000070: 1b0f 8a3c 5027 51bd f3a2 8dbd deb6 7f3c
00000080: e13f 81bd 9d58 9abc 2c9b 383d ee78 b2bc
00000090: b194 ab3c 7402 f03c c074 6a3d d30c a33c
000000a0: 40cf 59bd 18ec 9b3d 107f 8abd 60ae 1e3e
000000b0: 01a8 84ba 5671 613c f30f 67bd 7fba 8bbc
000000c0: 3f45 ea3c 323f 20bd 9f10 813d 2863 1cbd
000000d0: 91fd dcbc 12c5 68bd 2d9b 14bd 3033 ac39
000000e0: 1e5d 48bd ab90 b53d c216 23bb 92f0 d8bc
000000f0: 2f7f 54bd ee16 6cbd 8b2a 59bd 384a 57bc
00000100: 4e26 6d3e 9e0b 5d3d 0f5a 2dbd 5c4d 9cbc
00000110: 1308 4dbd 1be2 033c 6a3a 123e 35ea c1bc
00000120: 5619 17bb 1674 273d 9823 e13b cc5b 86bc
00000130: ed51 803d 20ee d73c 81cd 033e da97 c23d
00000140: eaef 98bc f89c 6cbd 5068 b33b 6ca6 2e3d
00000150: 2640 78bd 612a adba d6b5 cc3a 19ce fa3c
00000160: 8ab1 453d c0ed 84bd 7739 2a3d fa79 b0ba
00000170: 1a80 2a3c 9fbf 26bd c070 233d f532 8f3d
00000180: dc15 883d 2d36 a33c a26e 163d 6504 86bd
00000190: a9f4 383d e7ec dbbc c423 b13c 5daa 89bd
000001a0: 9baa 60bd ca59 d4bc df1d 613c d033 fd3a
000001b0: 2325 023d 97f0 643d 8ef8 de3d 114a 36bd
000001c0: 1e63 5b3d 8115 553d 226d 63bc 44fc d7bc
000001d0: 6383 a43c 409e 4cbd 9270 0fbd 3c04 043c
000001e0: d0c1 cd3b 9c2d 043e 22c0 553d 9c64 27bd
000001f0: 1650 3fbd 6aa4 8c3c acea 213c 5fbf 83bd
00000200: 5fc6 9abd 5569 6f3e eb31 4bbc f8fe 0dbd
00000210: e45b 583d 85d9 e9bb 3918 083c bc21 4d3e
00000220: a6ae 43bd 9330 c93c 585b d9bc 9051 993c
00000230: 7240 063d ffa9 103d 7094 bfbb 4fed b7bb
00000240: 982b 0b3d 98bd ae3c f753 833c c3f8 9d3b
00000250: 6955 f7bc 6e33 d8bc 6b95 98bc 659c 3a3d
00000260: ac9c 443d 945a 5b3d 5000 5d3c 41db ddbc
00000270: f178 dfbc 3628 633d 7b7f a23c 9f6a afbc
00000280: 72fa 023d 6e88 41bd 36a5 b43d 3f3f 48bd
00000290: 5805 443d 2d92 50bd 5ec7 35bd 726e 1f3d
000002a0: 7e18 73bd 0168 6a3d 8442 eabc 2592 75bc
000002b0: 79f8 74bd d89d 0c3c 08ed 03bd e941 74bd
000002c0: b0d7 56bd ee56 483d 3d8c b0bc 89a3 073c
000002d0: 5b09 af3b aa24 78bd 1cbd da3c 6155 a13c
000002e0: 2a85 293d 4e5d 703d 2fc6 013d 227f 0bbb
000002f0: a0e7 d03b cf09 2ebd ae3c 9ebc 1409 093d
00000300: ed04 273d 8e4f 35bc c416 2ebc bc50 593d
00000310: dc93 1b3d dc14 84bd 9602 5b3d 4881 23bd
00000320: 968c 0b3d 9d85 d3bb 5baf 513d 2ce1 143c
00000330: d2d8 36bd 4dfb 70bd 857f b53c a7cf f93d
00000340: 4b15 d9bc 9654 bd3c 5194 f2bb 2d91 ca3c
00000350: d7f2 c13c 4418 babc d41b 83bb 76f9 63bc
00000360: 64d0 273d 94ee 3ebd fb1b 62bd 4c67 35bd
00000370: e168 b7bc 3f13 c03b 97ed 3b3d ad20 01bd
00000380: 6c6b 6dbb 7f01 8cbd b27d 463d b4d3 093a
00000390: 7a1d 46bd 0dce fb3c aaa1 6bbd 6bac 0c3d
000003a0: 72a4 ff3c bdb2 813d c651 19bd a62b 1a3d
000003b0: 029b b83d 7ec7 023e 00d3 3ebc 8fd8 643c
000003c0: 896e 8c3c 6c23 a1bc eaa5 6ebd f18d d4bc
000003d0: dd4a febc 6cec bfbc 749c 2d3d 5136 d13b
000003e0: 68de 65bd 60a0 30bd 2e58 2ebd fc6f 7e3d
000003f0: 36a7 983b ecbf 413d ad79 46bd 81e5 14bd
-0.042892065 -0.04579175 -0.0044343513 -0.0072468193 0.007977449 0.034420703 -0.0037251934 -0.04576826
0.010912336 0.04512598 0.04766034 0.05151501 -0.05734298 -0.04572016 0.04227142 -0.022743363
0.050783016 -0.01913025 -0.015619305 -0.036653787 -0.028606784 0.04880247 -0.065226085 0.007287647
-0.021787781 -0.0329076 -0.054883294 0.009574793 0.016852906 -0.051062882 -0.06915846 0.015607564
-0.06311012 -0.018841082 0.04506986 -0.02178618 0.020944925 0.029298045 0.057240248 0.019903576
-0.053176165 0.07613391 -0.067625165 0.15496206 -0.001012087 0.013759932 -0.056411695 -0.017056702
0.028597472 -0.039122768 0.06301998 -0.0381805 -0.026976379 -0.056828566 -0.0362808 0.00032844534
-0.04891693 0.08865484 -0.002488539 -0.0264819 -0.051879104 -0.057639055 -0.053019088 -0.013140254
0.23159143 0.053966157 -0.042322215 -0.019079857 -0.05005653 0.008049513 0.14280096 -0.023671249
-0.0023055873 0.040882193 0.006870698 -0.016401194 0.06265626 0.026358664 0.12871362 0.0950162
-0.018669087 -0.057766885 0.0054750815 0.04263918 -0.06060805 -0.0013211482 0.0015618156 0.030615853
0.048265018 -0.0649066 0.04155871 -0.0013464086 0.010406518 -0.040710088 0.03990245 0.06992141
0.06644794 0.019923294 0.0367266 -0.06543807 0.0451552 -0.026846362 0.0216235 -0.06721947
-0.054850202 -0.025921721 0.013740032 0.001931781 0.031773698 0.055893507 0.10887252 -0.04450423
0.053561322 0.05202246 -0.013881 -0.026365407 0.020082181 -0.049955606 -0.035019465 0.00805765
0.0062792078 0.12908024 0.052185185 -0.040867433 -0.046707235 0.017168242 0.00988261 -0.064329855
-0.075573675 0.23380025 -0.012402038 -0.034666985 0.05282201 -0.007136526 0.008306556 0.200324
-0.04777398 0.024559295 -0.026532814 0.01871565 0.032776304 0.03531837 -0.0058465526 -0.005613006
0.03397712 0.02133064 0.016031248 0.0048209145 -0.030192094 -0.026391711 -0.018625936 0.045559306
0.048000976 0.05355318 0.013488844 -0.027082087 -0.027279349 0.05545827 0.019836178 -0.021413146
0.031977125 -0.04724925 0.08820574 -0.04888844 0.04785666 -0.050920654 -0.044379584 0.03892369
-0.05934953 0.057228092 -0.02859617 -0.014988457 -0.059807274 0.008582555 -0.032208472 -0.05963317
-0.05245179 0.048911028 -0.021551246 0.008278736 0.0053416914 -0.06058184 0.026701503 0.019694032
0.04138676 0.058682732 0.031683143 -0.0021285494 0.006375268 -0.042489823 -0.019316044 0.033455923
0.040776182 -0.011066331 -0.010625545 0.05305551 0.037982807 -0.06449291 0.053469263 -0.039918214
0.03406962 -0.006455137 0.051192623 0.009086888 -0.04464037 -0.05883341 0.022155533 0.1219781
-0.026499411 0.023111623 -0.0074029346 0.024727428 0.023675365 -0.022716649 -0.00400112 -0.013914457
0.04097022 -0.046614245 -0.055202466 -0.044287965 -0.022388877 0.0058616693 0.04588088 -0.031525303
-0.0036227359 -0.06836223 0.048459716 0.00052576815 -0.048367955 0.030737901 -0.05752722 0.034344118
0.031206343 0.0633292 -0.0374315 0.037639283 0.090139404 0.12771413 -0.011646986 0.013967647
0.017142551 -0.01967021 -0.058263697 -0.02594659 -0.031041557 -0.023428164 0.042385533 0.006384649
-0.056120306 -0.043121696 -0.042564563 0.062118515 0.004658605 0.04730217 -0.048455883 -0.036351684

weight f4 [1, 256]
00000000: e874 3bbc 5fcc 24bd 6eb7 583c 6b3c 3f3c
00000010: ecb7 3ebd 4dda 31bd a3e0 573d 79f0 053c
00000020: bf87 66bc 6b57 403c 54e1 debc e387 e73a
00000030: eacb 57bd 539b 7ebd 27d6 ddbc 645d 583d
00000040: 2c40 9d3c 9ce6 aebc 6ffd c03c 08ad 61bc
00000050: 5d31 e63c 5cea 20bd 58b0 f939 517c 183d
00000060: 254a f7bc 2681 3a3d 9242 1c3d 30dc b5bc
00000070: c92f 59bd 52b7 263d 0253 0139 4e96 bbbc
00000080: 3835 ef3a f648 243d e5c2 963c 81e9 3dbc
00000090: f8de 47bd 3f2d 83bd 2a2f fcbc 95b9 43bd
000000a0: e81a 32bd b014 8a3c dd31 28bd 7839 8bbd
000000b0: 6cd4 f5bb 6be2 e43c 79b9 283d 2726 2dbd
000000c0: 39eb 493d c267 173d 676a acbc 7749 6f3d
000000d0: a796 183a 943f ac3c 8c0e bcbc 1125 9abb
000000e0: d932 3fbd 5710 2fbd 70a8 6dbd 68ac 6b3d
000000f0: d6ef 01bd f045 52bd a3aa 2e3d 3ee8 273d
00000100: 1a5a 8bbd 1a8f 623c 2aeb 6d3d 09ff 07bd
00000110: 00bb 54bd 50e5 7d3b 3ffa 1fbd 7d35 30bd
00000120: 3989 92bc 7755 803b 3df8 5dbd d39c c5bc
00000130: 5e5d 143d f35c 67bd 1847 47bd 10c3 3f3d
00000140: 278a c8bc 9d4d 1b3c 9c3f 93bb 38df 7b3c
00000150: d5c5 c737 7017 063b e139 31bd 3e99 883c
00000160: 0f5c 923b d750 cd3c 0c2f 4c3d d4be 393c
00000170: a058 25bd 68cd 0abd eacd 1cbd 4868 013d
00000180: 3982 523d 342a 2dbd 879c 61bd fd9c 3a3c
00000190: 9199 dabc 02b9 1a3d 83ec 0d3c 62f5 3abd
000001a0: 162a 3abd 7b6d 443b 96c5 673b b292 cfbb
000001b0: 9224 7fbd a05a abbc 6ceb a33c 4e5b 6cbd
000001c0: 037e 54bd 9f66 9c3c 9c18 36bd 0ad1 4bbc
000001d0: 7914 0abd 2c84 0dbd 6d96 31bd 9963 76bd
000001e0: 4d40 19bc f40d 88bd 9fc5 4b3d 6cf2 4ebd
000001f0: b315 d93c ebda 98bc 6229 90bc 6841 b73c
00000200: 5dd5 8e3b b646 61bd f71d 20bd 592b 00bd
00000210: 69a1 223c 3c63 4e3d f1b3 713b 3dc6 d6bc
00000220: b425 bf3c 1f70 973c aa59 2f3d 5fa9 c73c
00000230: e57a 8bbb 59bb 363d 9d8d 3ebd a0e0 d13c
00000240: eaf6 053d 78e2 f43a c319 16bd f03d f5bc
00000250: 9fa0 5fbd f4fb 583d 7732 513d 360d 9b3c
00000260: 1f3e ebbc 7fb6 183d a6d5 0dbd e709 71bd
00000270: aeb7 2d3d 0cf9 74bd 47f1 73bd a38d 05bd
00000280: 9ae9 c63b 006b 853c be4e d53c b962 ae3b
00000290: 2171 c03c bf3a d83c 7d68 98bc 263c dbbc
000002a0: c38c 1abd a566 49bd 6d1f 8ebc d284 183b
000002b0: db2e 4abd 93cb e4bc 8101 883b 34da 51bd
000002c0: 830e 043d 25c7 00bd c445 c2bc cfd1 6db9
000002d0: 6140 e3bc cba4 f1bc 01d8 993b 76e2 1abd
000002e0: a10a bbbb d2b3 523d 3434 1bbd 0e66 0fbd
000002f0: ae7a 933c b67e e03c 2eb1 60bd c445 11bd
00000300: 650b 4c3d a71a 5fbc 7465 66bd d253 4bbd
00000310: 493e 463d b941 26bd d9cd 02bc 8db6 77bd
00000320: ec50 8bbc f561 03bd 2019 133d 0cba 63bd
00000330: 19cb 083d 95e4 bebc 0c11 95bc 01c6 1d3d
00000340: 2316 49bd 838e 613c 7fb3 be3c aaff 193d
00000350: d9ed 0ebd f1e2 733c e746 2a3d f088 123b
00000360: 5d29 a3b8 988d a13c c7ad 6a3a f540 2cba
00000370: a291 81bd e88b 64bd a82b 68bc e4a8 573a
00000380: 2bb8 dabc fa41 023b 907c 54bd 0ba0 163c
00000390: 1b79 80bb 5195 c4bc a76e a6bc 3876 e3bb
000003a0: 93e8 4fbd b72b d13b 41fa dabb 3a37 81bc
000003b0: 26d6 893d cb73 5cbd 30f9 b43c c328 7ebd
000003c0: 9fe1 0fbd 34ba e0bc 7cec 453d 867b 68bd
000003d0: 2de6 3fbd 6c88 23bb fe6e c63c f973 423d
000003e0: c3b0 013d ca47 393c 9ed1 de3c fecd 983c
000003f0: 1a38 0fbd 7d44 5a3c c248 37bd 9692 1d3c
-0.011441447 -0.040233966 0.013227327 0.01167212 -0.04656212 -0.04342108 0.052704465 0.008175009
-0.01407045 0.011739592 -0.027207054 0.0017664399 -0.052684702 -0.062159847 -0.027079655 0.05282344
0.019195639 -0.021350197 0.023558347 -0.013774164 0.02809971 -0.039286003 0.00047624367 0.037227932
-0.030186722 0.04553332 0.038149424 -0.02219972 -0.053024087 0.04070217 0.00012333322 -0.02289882
0.0018250113 0.040108643 0.01840348 -0.011591316 -0.048796624 -0.064051144 -0.030784208 -0.047784407
-0.04348269 0.016855568 -0.04106318 -0.06798071 -0.0075021293 0.027939996 0.041192506 -0.042272713
0.04929659 0.036964186 -0.02104683 0.05841967 0.0005820789 0.02102641 -0.022956155 -0.0047041257
-0.04667935 -0.042740192 -0.058021963 0.057537466 -0.031722866 -0.05133623 0.0426432 0.040992968
-0.06804295 0.013828063 0.058085598 -0.033202205 -0.05193615 0.0038741417 -0.039057013 -0.04301976
-0.017887698 0.003916438 -0.054191817 -0.024122631 0.036221854 -0.056485128 -0.048651785 0.046816885
-0.024479939 0.009478954 -0.004493667 0.015373044 2.3814771e-05 0.0020460747 -0.04326809 0.016674634
0.0044665406 0.025062962 0.049849555 0.011337001 -0.040367723 -0.033887297 -0.038282312 0.03159359
0.05139372 -0.042276576 -0.055080917 0.011389968 -0.026684554 0.037774093 0.008662346 -0.04564417
-0.045450293 0.0029972482 0.0035365573 -0.006334626 -0.062290736 -0.020917237 0.020009719 -0.057704262
-0.051877987 0.019091902 -0.044457063 -0.0124399755 -0.03371093 -0.034549877 -0.043356348 -0.060153577
-0.009353709 -0.06643286 0.049749013 -0.05052416 0.026499605 -0.018659076 -0.017597858 0.022370055
0.004358931 -0.054999076 -0.039091077 -0.03129134 0.0099261785 0.050387606 0.0036880935 -0.026217574
0.023333408 0.01848608 0.04281012 0.024372755 -0.0042565935 0.044612262 -0.04652177 0.025619805
0.03270618 0.0018683216 -0.036645662 -0.02993676 -0.05459654 0.052974656 0.051073518 0.018927198
-0.028716145 0.037283417 -0.03462758 -0.058847334 0.0424115 -0.059807822 -0.059556272 -0.03260578
0.006070328 0.016286373 0.026038524 0.0053218273 0.023491444 0.0263952 -0.018604511 -0.02676208
-0.037731897 -0.049170155 -0.01734897 0.0023272526 -0.04936109 -0.027929103 0.00415057 -0.051233485
0.032240402 -0.03143992 -0.023714907 -0.00022680241 -0.02774066 -0.029497525 0.004694939 -0.037813626
-0.005708054 0.05144102 -0.03789158 -0.035009436 0.018002834 0.02740417 -0.05485647 -0.035466924
0.049815554 -0.013617194 -0.056249097 -0.049640484 0.048399244 -0.04059002 -0.007983648 -0.06047683
-0.01700636 -0.03207584 0.035912633 -0.05559735 0.033396814 -0.023302356 -0.018196605 0.03851891
-0.049093377 0.013766888 0.02327895 0.037597336 -0.034894798 0.01488565 0.041571524 0.0022359453
-7.78015e-05 0.019720837 0.00089522864 -0.00065709586 -0.063266054 -0.055797487 -0.014170565 0.0008226766
-0.026699146 0.001987575 -0.051876605 0.009193431 -0.003920687 -0.02399698 -0.020316435 -0.006941583
-0.05075891 0.006383385 -0.0066826646 -0.015773404 0.06730299 -0.053821366 0.022091478 -0.062050592
-0.03512728 -0.027432539 0.048321232 -0.056758426 -0.046850372 -0.002495314 0.024222847 0.04747388
0.031662714 0.01130862 0.027199563 0.018652912 -0.034965612 0.013321993 -0.04474712 0.009617468
