NN_with_GMM_model.pth (torch, 279468 bytes, 5 tensors)

weight f4 [256, 10]
0.3793165 0.3045662 -0.06014742 0.24610117 -0.088342905 -0.32087988 -0.19332345 -0.04498031
-0.2576875 -0.00961022 0.22623838 0.6183684 0.10985033 0.42293358 -0.2074632 0.30680373
0.03585599 -0.5771764 0.98468673 -0.6455958 0.2255738 -0.12712824 0.011910924 0.16767924
0.2011738 -0.09253476 0.3239976 0.1914884 0.031274952 -0.24970937 -0.22462404 0.3672743
-0.61448693 0.47808188 0.1704411 0.46974787 -0.039787397 0.20245294 0.045339264 -0.6299767
-0.3414722 0.30628678 -0.32379746 -0.0115485005 0.20768553 -0.18166079 -0.29071796 0.0031318269
-0.12517045 -0.21343945 0.04593321 -0.24702112 0.07585212 -0.33849725 -0.34597054 -0.014693263
0.19021302 -0.023528727 0.21438916 -0.09298859 0.0018099225 0.3705694 -0.3728972 0.35929924
0.4639044 0.8893201 0.05034487 0.2299954 -0.68779343 -0.00013270008 0.10214676 0.023458302
0.58119845 0.0050111935 0.14950888 -0.11009623 0.30680767 -0.12747815 -0.06655037 -0.17826852
-0.20406362 0.16880512 -0.14718087 0.863926 0.5214534 0.32066575 -0.044026915 -0.6033342
-0.4721264 -0.72463405 0.19660774 -0.065828495 0.037401587 -0.10910316 -0.10128648 0.13997656
-0.17377813 -0.08151734 -0.0976072 -0.10964402 -1.067182 -0.2877604 0.36200422 -1.0372574
0.52356786 -0.2985797 0.03804004 0.09507154 -0.6893332 -0.032331657 -0.19933958 -0.21927485
-0.18547267 0.13603131 -0.17850715 0.27246878 -0.2083974 0.09330506 0.003011016 -0.23761752
0.15990774 0.05262001 0.10053746 0.05340134 0.022034459 0.04235118 0.24908565 0.098940834
-0.3854127 -0.2813063 -0.18717754 -0.065859824 0.19609448 -0.54999524 0.2631995 -0.023347475
0.25024885 -0.2660004 0.23219088 0.24437875 0.28139186 -0.29174405 0.09746109 0.15691243
0.08010135 0.13944145 -0.062273376 -0.03431887 0.068523526 0.28293294 0.32013 -0.06559284
0.14441465 -0.08274894 0.14614955 0.25480387 -0.019271335 0.06188993 0.09932221 0.015774839
-0.73341054 0.04693814 -0.52910125 -0.17490596 0.50536644 0.3126227 -0.048674818 -0.46095392
0.01654859 -0.62197304 0.2949106 0.019850165 -0.009021588 0.053729624 0.13898371 -0.20430364
-0.2968511 -0.29420847 -0.08617423 0.12172314 0.15713781 -0.29276493 -0.13800038 0.15215617
0.30450112 0.14421354 -0.11440386 -0.20946608 -0.30501398 0.28521055 0.17320316 -0.31644267
0.015776586 0.21931489 -0.21993949 0.10269267 -0.24747035 -0.099657916 0.12732846 -0.0058190967
0.22726896 -0.25896275 -0.1319985 -0.22666149 -0.042490043 -0.013927495 -0.06031999 -0.06758466
-0.063958555 0.06944138 -0.071587615 0.066690736 -0.04721009 -0.27265814 -0.08514978 -0.17782068
-0.30734518 0.26500794 0.17279133 -0.21775733 -0.13495262 -0.13598791 -0.26580468 -0.40038407
0.18849711 -0.094203345 0.25101 0.060980964 -0.209307 -0.19089362 0.2890051 -0.1800381
-0.110666685 0.38339648 0.20249699 0.21688312 -0.0070132483 -0.0498982 -0.14805238 0.055877954
0.18340775 0.0039694356 -0.12013633 -0.1502191 0.060988087 -0.015258588 -0.11298193 0.06242474
0.124800876 0.18698399 -0.30788675 -0.29739064 -0.21291679 -0.09099085 0.10667273 0.19011883
00000000: c635 c23e 1af0 9b3e 245d 76bd f201 7c3e
00000010: 20ed b4bd 5e4a a4be 95f6 45be 463d 38bd
00000020: 9eef 83be 2f74 1dbc 09ab 673e 644d 1e3f
00000030: 36f9 e03d c08a d83e 3c71 54be 6115 9d3e
00000040: bbdd 123d d5c1 13bf 6e14 7c3f c445 25bf
00000050: d1fc 663e e82d 02be 0926 433c 1bb4 2b3e
00000060: 8100 4e3e dd82 bdbd 03e3 a53e 8915 443e
00000070: 2a1a 003d d0b3 7fbe d803 66be 610b bc3e
00000080: 044f 1dbf 26c7 f43e 1d88 2e3e cb82 f03e
00000090: 1cf8 22bd d34f 4f3e aab5 393d 2746 21bf
000000a0: 72d5 aebe 9fd1 9c3e c8c8 a5be ec35 3dbc
000000b0: 84ab 543e 4905 3abe fcd8 94be 563f 4d3b
000000c0: af2c 00be df8f 5abe 7624 3c3d 1bf3 7cbe
000000d0: 5b58 9b3d 834f adbe 0d23 b1be 03bc 70bc
000000e0: 34c7 423e 51bf c0bc d588 5b3e cd70 bebd
000000f0: ec3a ed3a 46bb bd3e 62ec bebe 12f6 b73e
00000100: e184 ed3e 7baa 633f 6c36 4e3d ea83 6b3e
00000110: 3b13 30bf 6825 0bb9 5232 d13d a02b c03c
00000120: 6cc9 143f f034 a43b db18 193e 227a e1bd
00000130: e515 9d3e a289 02be 8f4b 88bd 068c 36be
00000140: 0ef6 50be 40db 2c3e 95b6 16be 412a 5d3f
00000150: f87d 053f 4d2e a43e 9155 34bd 1c74 1abf
00000160: 8dba f1be 9e81 39bf 8a53 493e 17d1 86bd
00000170: 6832 193d 7a71 dfbd 496f cfbd 0456 0f3e
00000180: e5f2 31be 90f2 a6bd 49e6 c7bd 0b8d e0bd
00000190: 6b99 88bf 5555 93be 9e58 b93e dac4 84bf
000001a0: 8b08 063f 70df 98be dfcf 1b3d deb4 c23d
000001b0: 2478 30bf 336e 04bd ad1f 4cbe 9689 60be
000001c0: 8cec 3dbe cb4b 0b3e 94ca 36be 0781 8b3e
000001d0: 2166 55be b916 bf3d 7754 453b 0252 73be
000001e0: dbbe 233e 1488 573d 95e6 cd3d 5dbb 5a3d
000001f0: 9c81 b43c 6e78 2d3d 4f10 7f3e 7ea1 ca3d
00000200: d054 c5be 6107 90be 78ab 3fbe 84e1 86bd
00000210: fecc 483e 7dcc 0cbf 16c2 863e 3443 bfbc
00000220: 9e20 803e 3431 88be 72c3 6d3e 6c3e 7a3e
00000230: 9812 903e 7a5f 95be ae99 c73d a7ad 203e
00000240: 2d0c a43d bdc9 0e3e 5e12 7fbd f291 0cbd
00000250: 1056 8c3d 96dc 903e 14e8 a33e 8a55 86bd
00000260: 6fe1 133e 4778 a9bd 3aa8 153e a775 823e
00000270: ebde 9dbc 4c80 7d3d 7169 cb3d 3c3a 813c
00000280: cbc0 3bbf 3542 403d 2e73 07bf 8c1a 33be
00000290: b25f 013f 1510 a03e 3f5f 47bd 2702 ecbe
000002a0: e990 873c a039 1fbf 86fe 963e d09c a23c
000002b0: 48cf 13bc 9813 5c3d bf51 0e3e f934 51be
000002c0: defc 97be 7ea2 96be 1d7c b0bd fb49 f93d
000002d0: bce8 203e 49e5 95be f94f 0dbe d4ce 1b3e
000002e0: 92e7 9b3e b7ac 133e 924c eabd 477e 56be
000002f0: cb2a 9cbe 1e07 923e 2b5c 313e c604 a2be
00000300: e63d 813c 1594 603e d137 61be 8950 d23d
00000310: de68 7dbe 7319 ccbd 6462 023e 1fae bebb
00000320: 32b9 683e c496 84be 9d2a 07be f319 68be
00000330: 0a0a 2ebd 2630 64bc 1812 77bd d469 8abd
00000340: b4fc 82bd 4837 8e3d 879c 92bd 2795 883d
00000350: 5e5f 41bd d999 8bbe 0263 aebd a016 36be
00000360: 595c 9dbe 1faf 873e 36f0 303e c7fb 5ebe
00000370: 0531 0abe 6a40 0bbe 8d17 88be 24ff ccbe
00000380: 6305 413e afed c0bd 6284 803e 2dc7 793d
00000390: 9354 56be 9e79 43be 7af8 933e e85b 38be
000003a0: 37a5 e2bd 8b4c c43e 5f5b 4f3e 9c16 5e3e
000003b0: 64cf e5bb 0e62 4cbd 0b9b 17be 48e0 643d
000003c0: 3ecf 3b3e 0a12 823b 090a f6bd 09d3 19be
000003d0: a5ce 793d 28ff 79bc 1263 e7bd 16b1 7f3d
000003e0: 9a97 ff3d bb78 3f3e 55a3 9dbe 9643 98be
000003f0: dc06 5abe 6959 babd 3b77 da3d 83ae 423e

bias f4 [256]
0.20142342 -0.06083995 0.027853608 0.3074488 -0.16173638 0.19679728 0.8674903 -0.16782041
0.2642253 -0.30738878 0.41034526 -0.31182373 -0.36565408 0.1993351 -0.035262633 0.1539175
0.30423242 0.21231076 -0.29529434 -0.20669982 -0.112518884 -0.18448228 -0.056254573 -0.31122082
-0.061521083 0.07812416 0.22759533 -0.030243238 0.037839632 -0.15320349 0.26054487 0.079808556
0.04456138 0.036747765 -0.18895942 0.053385247 -0.1952832 0.0673598 0.09302197 -0.03752632
0.10239007 -0.055394664 0.047251467 -0.25817 -0.033912078 0.079866745 0.11945523 0.26341808
-0.13964179 -0.014629038 -0.0134346215 -0.1240661 0.26246616 0.15745653 0.011859728 0.20016189
0.1415677 0.3791396 0.22324546 0.15216388 0.035355765 -0.111300446 0.2308086 -0.051841926
0.1984005 0.014019159 0.26280332 -0.1248116 0.20632988 0.2624436 0.15348259 -0.0042481706
-0.11015507 -0.4843298 -0.18105204 0.19111127 -0.074108005 -0.29141596 0.05454965 0.24782662
0.3562925 0.29190022 -0.23647775 0.13504317 -0.18106283 0.13667823 0.10963729 -0.03585357
-0.20214126 -0.05824559 0.25981823 0.3122787 -0.05719619 0.086939566 0.21144155 0.08154626
0.4427709 0.18700074 0.36797336 -0.07011465 0.26348257 -0.18222415 0.057870924 0.04321662
0.094494745 0.24699062 0.12910008 -0.042138975 -0.3567947 0.7538844 0.04200732 0.42321822
0.15040527 -0.16693209 0.09350959 0.08973289 -0.019080084 -0.14385879 -0.1746937 0.1737642
0.29930732 -0.18975165 -0.2802807 0.17585602 0.27221444 0.28944188 -0.34696212 -0.2863532
-0.21940021 0.03596577 -0.073764436 0.050989754 -0.2826162 0.7031234 0.03612976 0.29962915
0.24464639 -0.1422556 0.0907206 -0.12235723 -0.040382203 -0.17077914 0.18130162 0.22023696
-0.061476715 -0.3185212 0.2283842 -0.20833695 -0.07339718 -0.16485366 -0.009782862 -0.03878943
-0.2471105 0.15621665 -0.1955028 0.333374 -0.029551998 -0.05939931 -0.04854763 0.15128642
-0.12041247 0.10916421 0.06334568 -0.07233643 -0.020053985 0.009700574 0.11782147 0.2851599
-0.23590064 -0.004002188 0.3099631 -0.012358466 -0.117765464 0.19956915 -0.18577087 0.12599806
-0.3516084 0.2800453 0.4851845 0.01541018 0.053953428 -0.31857026 0.14139673 -0.16134825
0.22626743 0.31141326 0.17996007 -0.14505991 -0.16637692 -0.12558126 -0.18158627 -0.23574302
0.6728385 0.026842505 -0.18149638 0.04316554 -0.03146225 -0.08770925 0.29848716 0.26309142
0.06638411 -0.21437588 -0.2923864 0.0013635093 -0.008012425 0.22526368 0.06937773 0.088595666
-0.11478117 -0.22830307 -0.26187176 -0.0008420722 0.03778356 0.06293668 0.024451632 -0.15075232
0.20759235 0.24686052 -0.28691965 0.014701977 0.0011723571 -0.1526429 0.25135654 0.20672508
-0.10508327 -0.05166009 -0.31494832 -0.15439685 -0.052797705 -0.09632006 -0.32035455 0.27363053
0.06389871 0.032173894 0.2785517 0.22246149 0.19390248 -0.16042674 -0.13942425 0.06762702
0.13009365 -0.21901834 0.048017994 0.122573525 -0.14801782 0.13881946 0.24440865 0.0024132973
-0.16633692 0.10626707 0.4447645 -0.07859131 -0.27474758 0.17749946 0.39006537 -0.27201045
00000000: f141 4e3e 5033 79bd 402d e43c ee69 9d3e
00000010: 399e 25be 3a85 493e d813 5e3f 1dd9 2bbe
00000020: 8a48 873e 1062 9dbe c618 d23e 5ca7 9fbe
00000030: 0337 bbbe 801e 4c3e 8d6f 10bd 8d9c 1d3e
00000040: 5ac4 9b3e fe67 593e d230 97be 1ea9 53be
00000050: 4d70 e6bd ece8 3cbe 326b 66bd 5658 9fbe
00000060: 88fd 7bbd 8fff 9f3d c00e 693e abc0 f7bc
00000070: bbfd 1a3d 60e1 1cbe 2366 853e ab72 a33d
00000080: fe85 363d d384 163d 947e 41be 7daa 5a3d
00000090: 52f8 47be eff3 893d 4d82 be3d 33b5 19bd
000000a0: e3b1 d13d 84e5 62bd c18a 413d dc2e 84be
000000b0: 64e7 0abd 2d91 a33d f2a4 f43d bcde 863e
000000c0: 42fe 0ebe a2ae 6fbc e31c 5cbc 5e16 febd
000000d0: f761 863e 493c 213e 4e4f 423c 3df7 4c3e
000000e0: 20f7 103e 961e c23e 759a 643e d9d0 1b3e
000000f0: 35d1 103d 7df1 e3bd 1759 6c3e 3358 54bd
00000100: 8029 4b3e 9db0 653c 288e 863e 399d ffbd
00000110: 2448 533e 025f 863e 8a2a 1d3e 3d34 8bbb
00000120: fb98 e1bd 13fa f7be b565 39be acb2 433e
00000130: f0c5 97bd 7934 95be 746f 5f3d 43c6 7d3e
00000140: f86b b63e f273 953e 3927 72be c248 0a3e
00000150: 8968 39be 61f5 0b3e 8489 e03d 31db 12bd
00000160: 1efe 4ebe ee92 6ebd e506 853e fee2 9f3e
00000170: 8d46 6abd 5f0d b23d 2284 583e ba01 a73d
00000180: deb2 e23e 1f7d 3f3e 0167 bc3e 4598 8fbd
00000190: 30e7 863e f898 3abe 100a 6d3d e903 313d
000001a0: 7686 c13d 1ceb 7c3e d032 043e eb99 2cbd
000001b0: cbad b6be 91fe 403f de0f 2c3d 0fb0 d83e
000001c0: d703 1a3e 3ff0 2abe f581 bf3d e1c5 b73d
000001d0: d64d 9cbc b84f 13be e8e2 32be 3eef 313e
000001e0: cf3e 993e 424e 42be f480 8fbe 9a13 343e
000001f0: b15f 8b3e ba31 943e 05a5 b1be e39c 92be
00000200: 73aa 60be d850 133d cf11 97bd a2da 503d
00000210: 12b3 90be e5ff 333f cdfc 133d fe68 993e
00000220: 9584 7a3e 74ab 11be b9cb b93d 6d96 fabd
00000230: cf67 25bd bae0 2ebe 22a7 393e cc85 613e
00000240: 02cf 7bbd 3615 a3be 8cdd 693e 4856 55be
00000250: 4351 96bd 66cf 28be 4c48 20bc aae1 1ebd
00000260: 890a 7dbe 42f7 1f3e e331 48be ffaf aa3e
00000270: 0817 f2bc b14c 73bd e1d9 46bd d4ea 1a3e
00000280: d09a f6bd 7c91 df3d 61bb 813d 1f25 94bd
00000290: 4148 a4bc 28ef 1e3c 624c f13d 7a00 923e
000002a0: f08f 71be c924 83bb 7cb3 9e3e 2a7b 4abc
000002b0: 052f f1bd db5b 4c3e b83a 3ebe a305 013e
000002c0: 0406 b4be 1962 8f3e 1a6a f83e fb7a 7c3c
000002d0: 45fe 5c3d a41b a3be 4eca 103e 7a38 25be
000002e0: a6b2 673e 8f71 9f3e 7447 383e 968a 14be
000002f0: b65e 2abe 6098 00be c0f1 39be 9e66 71be
00000300: 253f 2c3f d0e4 db3c 30da 39be 59ce 303d
00000310: 8fde 00bd e8a0 b3bd 4fd3 983e ebb3 863e
00000320: 64f4 873d 5a85 5bbe acb3 95be c8b7 b23a
00000330: 8c46 03bc 86ab 663e e915 8e3d a571 b53d
00000340: 6412 ebbd 48c8 69be 0e14 86be 82be 5cba
00000350: efc2 1a3d f2e4 803d ca4e c83c d15e 1abe
00000360: 1793 543e 01c9 7c3e 22e7 92be 90e0 703c
00000370: c7a9 993a 6c4e 1cbe ceb1 803e bdaf 533e
00000380: e635 d7bd 8899 53bd e840 a1be 351a 1ebe
00000390: 6842 58bd 7443 c5bd 8305 a4be 4d19 8c3e
000003a0: 54dd 823d c6c8 033d 549e 8e3e f2cc 633e
000003b0: 5f8e 463e e846 24be 3bc5 0ebe 0980 8a3d
000003c0: 4537 053e 5846 60be 84ae 443d d407 fb3d
000003d0: fc91 17be b026 0e3e 4346 7a3e 6928 1e3b
000003e0: 3a54 2abe 8da2 d93d 2cb8 e33e 7bf4 a0bd
000003f0: b7ab 8cbe 6bc2 353e a6b6 c73e f444 8bbe

weight f4 [256, 256]
-0.0014125768 -0.0010651869 -0.044024263 0.03395143 0.04621876 -0.052809075 0.017522946 0.019046342
0.04960774 0.04031063 -0.037648782 0.023443483 0.008233484 -0.01891936 -0.041846633 0.022498053
-0.03811877 0.026037924 -0.0684771 -0.032790344 -0.04374089 0.047273703 0.06380398 -0.005191939
0.0014946081 0.025942497 -0.029771866 0.059400287 -0.0005203952 0.013395965 -0.03632251 -0.054771822
0.028656064 -0.04907642 0.036277488 -0.014103749 0.05301522 0.025221668 0.009791133 0.0108573865
-0.014514101 0.017641285 -0.02141383 -0.06267178 -0.020106085 -0.039823037 -0.0015478301 -0.06783161
0.03159678 0.029225878 -0.068330124 0.013439453 -0.053495154 0.035390235 -0.0013039408 0.020192293
-0.013519794 -0.05307199 -0.067139834 -0.041448638 0.007419174 0.0241451 0.014033323 0.039993998
0.043610364 0.041132603 0.038813934 0.023211563 -0.02892028 0.008526408 0.016188156 -0.01802119
0.045283027 -0.041597985 -0.06654398 -0.05640325 -0.0057359096 0.06140907 0.027064623 -0.03714099
-0.018696263 -0.032817874 -0.029122699 0.020147769 -0.0059586917 0.005142946 0.037964422 0.059874102
-0.04279464 0.02733017 -0.0037506912 0.023455577 0.019084701 0.005869582 0.0028295035 0.019619737
-0.048566215 0.016342899 0.014892595 0.044173803 0.031810872 0.040274862 0.01520721 -0.040309984
-0.052936837 0.0029593382 0.03661747 0.056146935 -0.06017662 -0.008363094 0.021648645 -0.042763576
-0.0510482 0.03139931 -0.035709314 0.0065957787 -0.0688746 -0.046099998 -0.04401919 0.020819189
-0.045798156 0.04594283 0.017559681 0.04361933 -0.03278902 -0.02747235 0.04223115 -0.046320703
-0.063867226 0.05120815 0.0103649935 0.045856327 0.0022257662 -0.0491847 -0.009764635 0.022817662
0.018563645 -0.014151124 -0.05127843 0.028136527 -0.04175356 -0.015062247 0.045398023 0.0005540771
0.007342633 -0.008389121 0.050418243 0.016442249 0.02714179 -0.0465639 0.0026998618 -0.0014720827
-0.009601705 0.031560153 0.050629206 -0.06695182 0.0053090234 0.06845632 -0.045659564 -0.036470525
-0.013521593 -0.029350508 0.05730903 0.050828606 -0.01754134 -0.029190177 0.018609872 -0.037538644
0.051528603 -0.052826837 -0.033487346 -0.06512511 0.010053207 0.04167371 0.049508613 0.059546135
0.042558867 -0.01403812 0.045130152 0.051478215 0.03725276 0.025331374 0.038207013 0.0025327343
0.043867245 -0.04570738 0.031815294 0.03283606 -0.0054652616 0.0063973856 -0.011051647 -0.018601967
0.052631468 -0.048375603 0.011841691 -0.06410623 0.05371173 -0.014284264 -0.0023690125 0.040315945
-0.031364325 -0.044796634 -0.0042695566 0.021407522 -0.0272131 -0.0068530324 0.03774486 -0.0051550237
0.022561755 0.03634999 0.0032136675 0.028611522 0.021276845 0.026372822 -0.021415886 -0.010707505
0.040694445 -0.051721405 -0.045818493 0.051315565 0.029511416 -0.006236031 -0.050088614 0.047996175
-0.0661958 0.059888408 0.034192562 0.062235747 -0.051582806 -0.0461781 -0.035642818 0.05804391
-0.012677888 0.0028126182 0.004638118 0.004776422 -0.036581837 -0.044065285 0.02694132 0.011480117
0.04077716 -0.0052008783 -0.035719234 -0.04673859 0.036562517 0.06796726 -0.017547129 -0.0060500214
-0.00998421 -0.024983509 0.05649564 -0.05646463 0.051439907 -0.046255756 0.012577 -0.028975833
00000000: 3626 b9ba be9d 8bba c952 34bd a810 0b3d
00000010: e24f 3d3d 544e 58bd 488c 8f3c 1307 9c3c
00000020: 7c31 4b3d c21c 253d 9c35 1abd 8c0c c03c
00000030: bce5 063c c6fc 9abc 6067 2bbd d64d b83c
00000040: 6d22 1cbd 7c4d d53c b93d 8cbd 2b4f 06bd
00000050: a629 33bd 12a2 413d a9ab 823d 2421 aabb
00000060: bae6 c33a 5c85 d43c 21e4 f3bc b74d 733d
00000070: 216b 08ba c07a 5b3c eac6 14bd 6b58 60bd
00000080: 1fc0 ea3c 5b04 49bd b497 143d 6913 67bc
00000090: 7d26 593d ac9d ce3c fd6a 203c 2ee3 313c
000000a0: 8dcc 6dbc 7584 903c 0e6c afbc 105a 80bd
000000b0: 84b5 a4bc 7b1d 23bd 8fe0 caba 4deb 8abd
000000c0: a06b 013d 1c6b ef3c aaf0 8bbd 2731 5c3c
000000d0: bc1d 5bbd 5af5 103d fee8 aaba 4f6a a53c
000000e0: 2082 5dbc 0462 59bd 9c80 89bd 0cc6 29bd
000000f0: 8b1c f33b f2cb c53c 06ec 653c bfd0 233d
00000100: c8a0 323d a97a 283d 5cfb 1e3d 2d26 be3c
00000110: 39ea ecbc 59b2 0b3c 069d 843c 2da1 93bc
00000120: b27a 393d a662 2abd 3648 88bd 1807 67bd
00000130: 4cf4 bbbb 1488 7b3d a1b6 dd3c 2721 18bd
00000140: e828 99bc 096c 06bd ba92 eebc ef0c a53c
00000150: 2141 c3bb 2886 a83b 9580 1b3d 8c3e 753d
00000160: 6f49 2fbd 85e3 df3c 28ce 75bb e925 c03c
00000170: 8557 9c3c 9f55 c03b 316f 393b 92b9 a03c
00000180: 5eed 46bd 8be1 853c 1200 743c 97ef 343d
00000190: 1e4c 023d 41f7 243d a927 793c 151c 25bd
000001a0: 4cd4 58bd 75f1 413b 33fc 153d 54fa 653d
000001b0: c27b 76bd 5c05 09bc 8058 b13c dc28 2fbd
000001c0: eb17 51bd 909c 003d ee43 12bd 6721 d83b
000001d0: 200e 8dbd 5ad3 3cbd 774d 34bd 018d aa3c
000001e0: d996 3bbd 8d2e 3c3d 52d9 8f3c 2faa 323d
000001f0: c84d 06bd b20d e1bc 92fa 2c3d c7ba 3dbd
00000200: d2cc 82bd a3bf 513d efd1 293c d8d3 3b3d
00000210: 29de 113b e575 49bd d9fb 1fbc 1bec ba3c
00000220: c912 983c 1eda 67bc 5509 52bd 937e e63c
00000230: c805 2bbd a5c7 76bc 47f3 393d 7c3f 113a
00000240: 789a f03b 8672 09bc 5c83 4e3d e5b1 863c
00000250: 7658 de3c cab9 3ebd 2af0 303b e6f2 c0ba
00000260: 7850 1dbc 3845 013d 9260 4f3d 091e 89bd
00000270: 51f7 ad3b d432 8c3d 8605 3bbd 1e62 15bd
00000280: ac89 5dbc 7a70 f0bc e0bc 6a3d a831 503d
00000290: dbb2 8fbc 3d20 efbc bb73 983c 1fc2 19bd
000002a0: a80f 533d f460 58bd 072a 09bd 5060 85bd
000002b0: 35b6 243c 0db2 2a3d 8bc9 4a3d a6e6 733d
000002c0: 3552 2e3d 2500 66bc 65da 383d d2da 523d
000002d0: 5a96 183d be83 cf3c f57e 1c3d 3bfc 253b
000002e0: 24ae 333d a937 3bbd c150 023d 1b7f 063d
000002f0: f015 b3bb 29a1 d13b f811 35bc 2763 98bc
00000300: 1894 573d 7f25 46bd a703 423c 214a 83bd
00000310: d500 5c3d 8c08 6abc 6f41 1bbb 5522 253d
00000320: e177 00bd ad7c 37bd a3e7 8bbb d45e af3c
00000330: 02ee debc 678f e0bb 5b9a 1a3d 79eb a8bb
00000340: 6ed3 b83c bae3 143d 659c 523b b662 ea3c
00000350: c74c ae3c d10b d83c 5e70 afbc 886e 2fbc
00000360: 38af 263d d3d9 53bd 2cac 3bbd 4530 523d
00000370: edc1 f13c 9f57 ccbb b829 4dbd a397 443d
00000380: aa91 87bd 8c4d 753d 800d 0c3d e9ea 7e3d
00000390: 7e48 53bd 3f25 3dbd 34fe 11bd 73bf 6d3d
000003a0: ebb6 4fbc e753 383b 5bfb 973b 8883 9c3b
000003b0: d6d6 15bd cd7d 34bd 0bb4 dc3c 1a17 3c3c
000003c0: f405 273d 216c aabb 554e 12bd f770 3fbd
000003d0: 94c2 153d 6b32 8b3d ffbe 8fbc 423f c6bb
000003e0: d094 23bc 37aa ccbc f967 673d 7547 67bd
000003f0: a7b2 523d ad76 3dbd c30f 4e3c ba5e edbc

bias f4 [256]
0.018085362 0.026415212 0.1969418 -0.059635468 0.04565636 0.06184246 0.05138583 -0.009005502
0.028511353 0.0784723 0.03743162 0.00032589337 -0.052203685 0.022336263 -0.02547144 0.027475996
0.04111646 0.004125142 0.039300013 0.021262709 0.03192526 -0.05968816 -0.018269645 0.0139628695
-0.52229106 -0.055215217 -0.052667826 0.041391134 -0.014546639 -0.048001107 0.038794123 0.012570069
-0.03859306 -0.0045407754 -0.049113963 -0.011531838 0.043125752 0.030028246 0.05344573 -0.030442847
-0.017445007 0.0036336165 0.21924922 0.04663183 -0.039653316 -0.076667964 0.030503716 -0.011782148
0.0353548 -0.007309656 -0.032548923 -0.014203641 0.0049331468 0.021774448 -0.009093196 0.022577606
0.083281554 0.028271507 0.032811373 -0.031943515 0.02875095 -0.02788156 0.017157331 -0.062249877
-0.032389417 -0.052305177 0.05008758 -0.0443743 0.032485165 -0.015789073 -0.032500837 -0.007602032
-0.031519573 -0.062280662 0.34086093 0.024154916 0.037348446 0.23965865 0.0046427054 0.20382014
0.0057632523 0.043230347 0.026281238 -0.024558475 0.082481906 0.05165982 0.009110833 -0.009561199
0.048802245 0.16066337 0.01506587 -0.009179741 0.058126483 -0.02619637 -0.053495888 0.002498379
-0.055398386 -0.008618359 -0.39968356 0.08248651 0.05570403 0.005773889 0.21818256 0.021466218
0.075351804 0.033802178 0.012838871 0.010403843 -0.023349108 -0.030810863 -0.0023938587 -0.056849707
-0.018611984 1.878206e-05 -0.04436745 0.04172317 0.025208436 -0.28464568 -0.048054904 0.051722825
-0.05961714 -0.017980365 -0.04893898 0.028681137 0.047087222 -0.0064852824 0.022520574 0.00937052
0.023685893 0.08152471 -0.059372816 0.01152577 -0.0114171915 -0.0037324566 0.039664395 0.014042165
0.019909557 0.04112899 0.060790222 -0.021622712 0.014824467 -0.049657818 0.0021975155 0.02105312
-0.04002439 0.022100635 -0.047003057 -0.014203678 0.20625283 -0.029508524 0.032807987 0.044823166
-0.03767962 0.054949917 -0.030584281 0.03554018 -0.014296571 0.015506977 0.02228754 0.024717562
-0.051925804 -0.04629795 -0.018562015 -0.05517019 0.05603575 0.15216106 0.027361851 0.030750796
-0.007488455 0.03315282 0.026965877 0.04493571 0.054440822 -0.39953288 0.01909343 -0.026671108
0.05673482 -0.056799605 -0.026247492 -0.057851348 -0.0442464 0.026970683 0.08066006 -0.06384382
0.05488539 -0.06789973 -0.002514918 -0.054381665 -0.012643134 0.04725947 -0.03372097 0.048302136
0.045749545 -0.5263863 -0.05748465 -0.055411033 0.07226945 0.0036907012 -0.029337142 0.002581479
0.025734503 0.057066552 0.02462448 -0.050411116 0.016929725 0.04581148 -0.03692123 0.053002227
0.01961869 -0.035307575 -0.0136682885 0.027138581 0.053057343 0.048876025 0.027315997 0.06124136
-0.04018323 0.20006433 0.056742486 0.079506405 0.017594947 0.036758658 0.052333605 -0.06195876
-0.01739848 -0.0057781953 0.01209243 0.06714479 -0.037054893 -0.039047573 0.020291714 0.052456178
-0.027145073 0.027176734 -0.0074305316 -0.0472179 0.0313868 -0.05218105 -0.04001271 -0.05353627
0.014581311 -0.12986255 0.002226493 -0.04960626 0.034755573 -0.01227187 -0.0017859457 0.036996745
-0.058008995 -0.013048209 -0.023323124 -0.040399168 -0.04322433 -0.040620446 0.042550344 0.08036228
00000000: c127 943c b764 d83c 1cab 493e 5244 74bd
00000010: 2a02 3b3d 854e 7d3d f379 523d d08b 13bc
00000020: a490 e93c 16b6 a03d e651 193d abdc aa39
00000030: 88d3 55bd 8afa b63c 7ba9 d0bc 5715 e13c
00000040: bc69 283d 332c 873b 0df9 203d 222f ae3c
00000050: 10c4 023d 927b 74bd 39aa 95bc 85c4 643c
00000060: deb4 05bf 5a29 62bd 38ba 57bd c089 293d
00000070: 0755 6ebc cf9c 44bd 96e6 1e3d b1f2 4d3c
00000080: c213 1ebd c9ca 94bb b92b 49bd 09f0 3cbc
00000090: a1a4 303d ccfd f53c e9e9 5a3d 4763 f9bc
000000a0: d5e8 8ebc f821 6e3b de82 603e 0501 3f3d
000000b0: 846b 22bd 1804 9dbd eee2 f93c e909 41bc
000000c0: 32d0 103d d785 efbb 0552 05bd 63b6 68bc
000000d0: 3ca6 a13b 5460 b23c a1fb 14bc acf4 b83c
000000e0: 858f aa3d a699 e73c 3865 063d 34d7 02bd
000000f0: 1d87 eb3c df67 e4bc 888d 8c3c baf9 7ebd
00000100: c4aa 04bd f43d 56bd a228 4d3d d3c1 35bd
00000110: 2a0f 053d 1658 81bc 991f 05bd 771a f9bb
00000120: ab1a 01bd 021a 7fbd 5385 ae3e 88e0 c53c
00000130: affa 183d 1469 753e d621 983b 3ab6 503e
00000140: aad9 bc3b 4e12 313d c04b d73c db2e c9bc
00000150: 46ec a83d 3f99 533d 9a45 153c 93a6 1cbc
00000160: dde4 473d f084 243e d7d6 763c a066 16bc
00000170: 0916 6e3d c599 d6bc 811e 5bbd d8bb 233b
00000180: 6be9 62bd 0534 0dbc 53a3 ccbe b0ee a83d
00000190: e929 643d e432 bd3b 406b 5f3e ecd9 af3c
000001a0: 0c52 9a3d 2774 0a3d 215a 523c e174 2a3c
000001b0: a146 bfbc 1067 fcbc 49e2 1cbb 3ddb 68bd
000001c0: 2978 98bc 2b8e 9d37 a5ba 35bd eae5 2a3d
000001d0: ec81 ce3c 14bd 91be 38d5 44bd 50db 533d
000001e0: 1a31 74bd 8f4b 93bc 3d74 48bd b4f4 ea3c
000001f0: 88de 403d 7e82 d4bb 117d b83c cf86 193c
00000200: eb08 c23c 6df6 a63d e930 73bd 95d6 3c3c
00000210: 2c0f 3bbc 3b9c 74bb 2277 223d 1c11 663c
00000220: 5e19 a33c df76 283d 2bff 783d 1d22 b1bc
00000230: 52e2 723c ff65 4bbd 3104 103b 9877 ac3c
00000240: 9df0 23bd 640c b53c 4786 40bd 8bb6 68bc
00000250: f133 533e dcbb f1bc ab61 063d 7f98 373d
00000260: f255 1abd 2a13 613d e38b fabc 9492 113d
00000270: 2a3c 6abc fa10 7e3c 5c94 b63c 7c7c ca3c
00000280: 27b0 54bd eba2 3dbd 5e0f 98bc 23fa 61bd
00000290: be85 653d 1cd0 1b3e f625 e03c 18e9 fb3c
000002a0: b761 f5bb 40cb 073d 8be7 dc3c 820e 383d
000002b0: 57fd 5e3d 938f ccbe d369 9c3c 5e7d dabc
000002c0: c562 683d b4a6 68bd fb04 d7bc 89f5 6cbd
000002d0: b73b 35bd 9ff1 dc3c 1a31 a53d 8cc0 82bd
000002e0: 81cf 603d 030f 8bbd 53d1 24bb 4fbf 5ebd
000002f0: 2625 4fbc 2593 413d 001f 0abd 76d8 453d
00000300: e063 3b3d 41c1 06bf 0675 6bbd aef6 62bd
00000310: 0102 943d b1df 713b 7254 f0bc 082e 293b
00000320: 2ad1 d23c 9ebe 693d 47b9 c93c e37b 4ebd
00000330: 35b0 8a3c d2a4 3b3d b73a 17bd dd18 593d
00000340: 60b7 a03c ad9e 10bd f5f0 5fbc bb51 de3c
00000350: a852 593d 3a32 483d ccc5 df3c 38d8 7a3d
00000360: 2c97 24bd aadd 4c3e cf6a 683d 41d4 a23d
00000370: 4723 903c 3f90 163d c35b 563d 78c8 7dbd
00000380: 4287 8ebc 0457 bdbb 541f 463c 3583 893d
00000390: dfc6 17bd 59f0 1fbd cf3a a63c 4adc 563d
000003a0: 585f debc bea1 de3c d17b f3bb 8f67 41bd
000003b0: 728f 003d ccbb 55bd 5ee4 23bd d948 5bbd
000003c0: 73e6 6e3c b0fa 04be 5bea 113b ef2f 4bbd
000003d0: dc5b 0e3d f40f 49bc 6516 eaba e689 173d
000003e0: d79a 6dbd 28c8 55bc 2310 bfbc 9979 25bd
000003f0: ff0b 31bd a061 26bd 4549 2e3d fb94 a43d

weight f4 [1, 256]
-0.042456083 0.04410468 -0.08478388 -0.038847987 -0.02894016 0.055375755 -0.021124419 -0.05147988
0.03554213 0.062615454 -0.0048415503 -0.048537597 -0.015336413 -0.004440546 3.141983e-06 0.038762566
-0.0050449516 -0.02095297 0.013955417 0.036375884 0.002997009 0.009616657 0.059044965 0.030365424
-0.0598778 -0.049643565 -0.002189556 0.0052315146 -0.04519298 0.0069132103 -0.0027284978 -0.0034976047
-0.027585637 0.010560419 -0.04740007 0.050488412 -0.0035563791 0.039481513 0.020951008 0.023394436
0.038513195 -0.025462458 -0.032865863 0.03585484 -0.024038594 -0.058732428 0.00033100415 0.06273199
0.023875859 0.027566189 0.016250843 -0.035559162 -0.045504075 -0.012765468 0.009783006 0.014561514
0.013805715 0.025559047 0.056753654 -0.017575717 0.053376246 -0.043046024 0.031004364 0.037854057
0.023871617 -0.029449748 0.02294352 0.05021134 -0.014101908 0.008148518 0.019514838 -0.040547542
0.037170604 -0.026154421 -0.0434632 -0.03278326 -0.043266572 -0.06511844 -0.012652617 -0.085427925
-0.02798695 0.009931287 -0.002249144 -0.0024297023 0.011413544 -0.04422497 0.045393188 0.03492461
-0.016361024 -0.04257411 0.060609788 -0.051328856 -0.054810695 -0.0124780405 0.007400722 0.0117474105
0.03516873 -0.05475928 -0.0977323 0.011752928 0.03201281 0.040356565 -0.046677105 -0.0005140521
0.02563344 0.0110509135 -0.019656494 0.01569807 0.004490095 0.014199841 -0.006409828 -0.010167732
0.011378944 -0.035312 -0.054710254 -0.050192747 -0.025811087 -0.07634275 0.0013737936 -0.004207288
-0.053416092 0.046285056 -0.030362595 0.039723787 -0.046940017 0.01847259 0.052579336 -0.058199693
-0.010923842 0.01758109 -0.02760936 -0.057044994 -0.05241458 0.017445352 -0.037683595 -0.015412737
0.02439676 -0.048501972 0.030181065 -0.027996803 -0.020617316 0.043278966 0.03712576 0.011029116
0.050615687 -0.028839018 0.023567481 0.013633967 -0.0442129 0.017293131 0.016778251 0.043128163
-0.054697797 0.038983315 -0.007485465 0.032353535 0.031510115 -0.028250078 -0.06743769 -0.051578604
0.011278979 -0.041254725 -0.003465617 0.024458315 -0.037980482 -0.047322705 0.040374227 -0.008412877
0.002064956 0.01895075 0.04586487 0.02146754 -0.03688725 -0.09931688 -0.058361493 0.034262057
-0.032980334 -0.054768123 -0.047924217 -0.03326402 0.0070555387 0.022504374 0.029590866 -0.026962623
0.02020277 0.021767467 0.02363227 0.009629242 -0.061435577 0.024016472 0.029293172 -0.0294611
0.047358587 -0.07300095 0.033257663 -0.0038164393 0.06318823 -0.05478554 -0.015766025 0.046966832
-0.04033082 0.030568857 -0.041899174 0.0005078851 0.0112489015 -0.037101995 -0.04131778 0.022510119
0.03573007 0.056285873 -0.003782418 0.028129715 0.0009814586 -0.0011399672 -0.036859468 0.041160613
0.036480878 -0.030684147 0.026570465 0.03737062 -0.028533159 0.055239864 0.012855775 0.01554166
-0.055950057 0.0006452318 0.024253745 0.019439459 0.047095295 -0.0542356 0.05489473 -0.052472513
0.0008700606 0.021779744 0.050944105 0.038911793 0.06114708 0.028425578 0.027227277 0.041909542
-0.054173313 -0.013786421 0.035475146 0.032342393 -0.042300936 0.030987872 -0.05530295 -0.044047963
-0.0008495292 -0.045643866 0.0107519375 -0.020286663 -0.018999062 0.03608103 0.061248686 0.05458671
00000000: 6ee6 2dbd 1ca7 343d 2ca3 adbd 111f 1fbd
00000010: ea13 edbc b0d1 623d 1e0d adbc 91dc 52bd
00000020: a094 113d 883c 803d dea5 9ebb 5ccf 46bd
00000030: 9445 7bbc 0082 91bb dbda 5236 7fc5 1e3d
00000040: 1f50 a5bb 90a5 abbc 43a5 643c e1fe 143d
00000050: 7869 443b 2f8f 1d3c 22d9 713d e9c0 f83c
00000060: 6d42 75bd 0d57 4bbd a77e 0fbb 206d ab3b
00000070: 461c 39bd 3688 e23b 99d0 32bb 1238 65bb
00000080: 46fb e1bc 9c05 2d3c 9326 42bd f0cc 4e3d
00000090: 2412 69bb 5eb7 213d 73a1 ab3c b0a5 bf3c
000000a0: 03c0 1d3d a596 d0bc 5b9e 06bd 86dc 123d
000000b0: 96ec c4bc 6a91 70bd a08a ad39 a179 803d
000000c0: 4e97 c33c 7dd2 e13c 7d20 853c 7ca6 11bd
000000d0: 7b62 3abd 4126 51bc e748 203c 6b93 6e3c
000000e0: 5e31 623c 3561 d13c 8576 683d f3fa 8fbc
000000f0: 0da1 5a3d 0751 30bd ddfc fd3c db0c 1b3d
00000100: 698e c33c 9940 f1bc 0df4 bb3c 68aa 4d3d
00000110: b00b 67bc 5d81 053c 95dd 9f3c 2e15 26bd
00000120: 3440 183d cc41 d6bc 7806 32bd bd47 06bd
00000130: 4a38 31bd d15c 85bd ec4c 4fbc d6f4 aebd
00000140: e344 e5bc d6b6 223c 6066 13bb a43b 1fbb
00000150: e0ff 3a3c 3e25 35bd 35ee 393d 1c0d 0f3d
00000160: 8e07 86bc 3162 2ebd f841 783d 353e 52bd
00000170: 2e81 60bd b270 4cbc c181 f23b 3678 403c
00000180: 160d 103d 444b 60bd df27 c8bd 5a8f 403c
00000190: dd1f 033d ed4c 253d 7e30 3fbd 74c1 06ba
000001a0: 38fd d13c e40e 353c a806 a1bc 3d99 803c
000001b0: a621 933b 73a6 683c 8909 d2bb 8f96 26bc
000001c0: c06e 3a3c 51a3 10bd dc17 60bd e996 4dbd
000001d0: c671 d3bc 9659 9cbd dd10 b43a 4add 89bb
000001e0: d5ca 5abd 6695 3d3d faba f8bc 69b5 223d
000001f0: 2d44 40bd d453 973c 6e5d 573d cd62 6ebd
00000200: eaf9 32bc 3806 903c 062d e2bc 03a8 69bd
00000210: acb0 56bd 8ee9 8e3c 1d5a 1abd b485 7cbc
00000220: b7db c73c 01aa 46bd 483e f73c 8d59 e5bc
00000230: a5e5 a8bc 4945 313d 2e11 183d 77b3 343c
00000240: 6552 4f3d ce3f ecbc 9710 c13c 0161 5f3c
00000250: 9618 35bd 53aa 8d3c 8b72 893c 28a7 303d
00000260: cc0a 60bd f8ac 1f3d a248 f5bb 2485 043d
00000270: c010 013d b56c e7bc c61c 8abd 1644 53bd
00000280: 77cb 383c b7fa 28bd 681f 63bb ce5c c83c
00000290: 6c91 1bbd 74d5 41bd 725f 253d 2ad6 09bc
000002a0: 3654 073b 9a3e 9b3c cddc 3b3d b2dc af3c
000002b0: 1617 17bd a666 cbbd 760c 6fbd 5f56 0c3d
000002c0: 6316 07bd 8a54 60bd 2f4c 44bd da3f 08bd
000002d0: 2632 e73b 185b b83c 8b68 f23c b8e0 dcbc
000002e0: 4880 a53c b051 b23c 7698 c13c f8c3 1d3c
000002f0: dfa3 7bbd 31be c43c 3cf8 ef3c 6858 f1bc
00000300: 14fb 413d 8681 95bd 3039 083d 3a1d 7abb
00000310: d568 813d cd66 60bd c027 81bc 4b60 403d
00000320: ee31 25bd 8a6b fa3c 789e 2bbd 9823 053a
00000330: 504d 383c 43f8 17bd d53c 29bd 2467 b83c
00000340: b259 123d 048c 663d 72e2 77bb 4a70 e63c
00000350: 49a4 803a f46a 95ba f4f9 16bd 0898 283d
00000360: f96c 153d 525d fbbc 4eaa d93c ef11 193d
00000370: 5fbe e9bc 3243 623d 07a1 523c 72a2 7e3c
00000380: e32b 65bd c624 293a caaf c63c 803f 9f3c
00000390: ffe6 403d 2626 5ebd 4cd9 603d 6bed 56bd
000003a0: c714 643a 6f6b b23c c4aa 503d f961 1f3d
000003b0: 5c75 7a3d c2dc e83c bd0b df3c 57a9 2b3d
000003c0: d6e4 5dbd 71e0 61bc 634e 113d 7579 043d
000003d0: bf43 2dbd 47da fd3c 5985 62bd a36b 34bd
000003e0: f1b2 5eba 10f5 3abd e528 303c 3730 a6bc
000003f0: eca3 9bbc b4c9 133d e7df 7a3d 5096 5f3d
